{"format": "graph-model", "generatedBy": "2.8.0", "convertedBy": "TensorFlow.js Converter v3.18.0", "signature": {"inputs": {"gray2rgb_input": {"name": "gray2rgb_input:0", "dtype": "DT_FLOAT", "tensorShape": {"dim": [{"size": "-1"}, {"size": "64"}, {"size": "64"}, {"size": "1"}]}}}, "outputs": {"dense_1": {"name": "Identity:0", "dtype": "DT_FLOAT", "tensorShape": {"dim": [{"size": "-1"}, {"size": "3036"}]}}}}, "modelTopology": {"node": [{"name": "StatefulPartitionedCall/sequential_1/MobilenetV3small/tf.math.multiply_53/Mul/y", "op": "Const", "attr": {"value": {"tensor": {"dtype": "DT_FLOAT", "tensorShape": {}}}, "dtype": {"type": "DT_FLOAT"}}}, {"name": "StatefulPartitionedCall/sequential_1/MobilenetV3small/tf.math.multiply_52/Mul/y", "op": "Const", "attr": {"dtype": {"type": "DT_FLOAT"}, "value": {"tensor": {"dtype": "DT_FLOAT", "tensorShape": {}}}}}, {"name": "StatefulPartitionedCall/sequential_1/MobilenetV3small/expanded_conv_10/squeeze_excite/AvgPool/Mean/reduction_indices", "op": "Const", "attr": {"value": {"tensor": {"dtype": "DT_INT32", "tensorShape": {"dim": [{"size": "2"}]}}}, "dtype": {"type": "DT_INT32"}}}, {"name": "StatefulPartitionedCall/sequential_1/MobilenetV3small/expanded_conv_10/squeeze_excite/Conv/Conv2D/ReadVariableOp", "op": "Const", "attr": {"dtype": {"type": "DT_FLOAT"}, "value": {"tensor": {"dtype": "DT_FLOAT", "tensorShape": {"dim": [{"size": "1"}, {"size": "1"}, {"size": "576"}, {"size": "144"}]}}}}}, {"name": "StatefulPartitionedCall/sequential_1/MobilenetV3small/expanded_conv_10/squeeze_excite/Conv/BiasAdd/ReadVariableOp", "op": "Const", "attr": {"value": {"tensor": {"dtype": "DT_FLOAT", "tensorShape": {"dim": [{"size": "144"}]}}}, "dtype": {"type": "DT_FLOAT"}}}, {"name": "StatefulPartitionedCall/sequential_1/MobilenetV3small/expanded_conv_10/squeeze_excite/Conv_1/Conv2D/ReadVariableOp", "op": "Const", "attr": {"value": {"tensor": {"dtype": "DT_FLOAT", "tensorShape": {"dim": [{"size": "1"}, {"size": "1"}, {"size": "144"}, {"size": "576"}]}}}, "dtype": {"type": "DT_FLOAT"}}}, {"name": "StatefulPartitionedCall/sequential_1/MobilenetV3small/expanded_conv_10/squeeze_excite/Conv_1/BiasAdd/ReadVariableOp", "op": "Const", "attr": {"value": {"tensor": {"dtype": "DT_FLOAT", "tensorShape": {"dim": [{"size": "576"}]}}}, "dtype": {"type": "DT_FLOAT"}}}, {"name": "StatefulPartitionedCall/sequential_1/MobilenetV3small/tf.__operators__.add_52/y", "op": "Const", "attr": {"value": {"tensor": {"dtype": "DT_FLOAT", "tensorShape": {}}}, "dtype": {"type": "DT_FLOAT"}}}, {"name": "StatefulPartitionedCall/sequential_1/MobilenetV3small/tf.math.multiply_51/Mul/y", "op": "Const", "attr": {"dtype": {"type": "DT_FLOAT"}, "value": {"tensor": {"dtype": "DT_FLOAT", "tensorShape": {}}}}}, {"name": "StatefulPartitionedCall/sequential_1/MobilenetV3small/tf.math.multiply_50/Mul/y", "op": "Const", "attr": {"value": {"tensor": {"dtype": "DT_FLOAT", "tensorShape": {}}}, "dtype": {"type": "DT_FLOAT"}}}, {"name": "StatefulPartitionedCall/sequential_1/MobilenetV3small/tf.math.multiply_49/Mul/y", "op": "Const", "attr": {"dtype": {"type": "DT_FLOAT"}, "value": {"tensor": {"dtype": "DT_FLOAT", "tensorShape": {}}}}}, {"name": "StatefulPartitionedCall/sequential_1/MobilenetV3small/expanded_conv_9/squeeze_excite/AvgPool/Mean/reduction_indices", "op": "Const", "attr": {"dtype": {"type": "DT_INT32"}, "value": {"tensor": {"dtype": "DT_INT32", "tensorShape": {"dim": [{"size": "2"}]}}}}}, {"name": "StatefulPartitionedCall/sequential_1/MobilenetV3small/expanded_conv_9/squeeze_excite/Conv/Conv2D/ReadVariableOp", "op": "Const", "attr": {"value": {"tensor": {"dtype": "DT_FLOAT", "tensorShape": {"dim": [{"size": "1"}, {"size": "1"}, {"size": "576"}, {"size": "144"}]}}}, "dtype": {"type": "DT_FLOAT"}}}, {"name": "StatefulPartitionedCall/sequential_1/MobilenetV3small/expanded_conv_9/squeeze_excite/Conv/BiasAdd/ReadVariableOp", "op": "Const", "attr": {"value": {"tensor": {"dtype": "DT_FLOAT", "tensorShape": {"dim": [{"size": "144"}]}}}, "dtype": {"type": "DT_FLOAT"}}}, {"name": "StatefulPartitionedCall/sequential_1/MobilenetV3small/expanded_conv_9/squeeze_excite/Conv_1/Conv2D/ReadVariableOp", "op": "Const", "attr": {"dtype": {"type": "DT_FLOAT"}, "value": {"tensor": {"dtype": "DT_FLOAT", "tensorShape": {"dim": [{"size": "1"}, {"size": "1"}, {"size": "144"}, {"size": "576"}]}}}}}, {"name": "StatefulPartitionedCall/sequential_1/MobilenetV3small/expanded_conv_9/squeeze_excite/Conv_1/BiasAdd/ReadVariableOp", "op": "Const", "attr": {"dtype": {"type": "DT_FLOAT"}, "value": {"tensor": {"dtype": "DT_FLOAT", "tensorShape": {"dim": [{"size": "576"}]}}}}}, {"name": "StatefulPartitionedCall/sequential_1/MobilenetV3small/tf.__operators__.add_49/y", "op": "Const", "attr": {"value": {"tensor": {"dtype": "DT_FLOAT", "tensorShape": {}}}, "dtype": {"type": "DT_FLOAT"}}}, {"name": "StatefulPartitionedCall/sequential_1/MobilenetV3small/tf.math.multiply_48/Mul/y", "op": "Const", "attr": {"value": {"tensor": {"dtype": "DT_FLOAT", "tensorShape": {}}}, "dtype": {"type": "DT_FLOAT"}}}, {"name": "StatefulPartitionedCall/sequential_1/MobilenetV3small/tf.math.multiply_47/Mul/y", "op": "Const", "attr": {"dtype": {"type": "DT_FLOAT"}, "value": {"tensor": {"dtype": "DT_FLOAT", "tensorShape": {}}}}}, {"name": "StatefulPartitionedCall/sequential_1/MobilenetV3small/tf.math.multiply_46/Mul/y", "op": "Const", "attr": {"dtype": {"type": "DT_FLOAT"}, "value": {"tensor": {"dtype": "DT_FLOAT", "tensorShape": {}}}}}, {"name": "StatefulPartitionedCall/sequential_1/MobilenetV3small/expanded_conv_8/squeeze_excite/AvgPool/Mean/reduction_indices", "op": "Const", "attr": {"dtype": {"type": "DT_INT32"}, "value": {"tensor": {"dtype": "DT_INT32", "tensorShape": {"dim": [{"size": "2"}]}}}}}, {"name": "StatefulPartitionedCall/sequential_1/MobilenetV3small/expanded_conv_8/squeeze_excite/Conv/Conv2D/ReadVariableOp", "op": "Const", "attr": {"value": {"tensor": {"dtype": "DT_FLOAT", "tensorShape": {"dim": [{"size": "1"}, {"size": "1"}, {"size": "288"}, {"size": "72"}]}}}, "dtype": {"type": "DT_FLOAT"}}}, {"name": "StatefulPartitionedCall/sequential_1/MobilenetV3small/expanded_conv_8/squeeze_excite/Conv/BiasAdd/ReadVariableOp", "op": "Const", "attr": {"dtype": {"type": "DT_FLOAT"}, "value": {"tensor": {"dtype": "DT_FLOAT", "tensorShape": {"dim": [{"size": "72"}]}}}}}, {"name": "StatefulPartitionedCall/sequential_1/MobilenetV3small/expanded_conv_8/squeeze_excite/Conv_1/Conv2D/ReadVariableOp", "op": "Const", "attr": {"value": {"tensor": {"dtype": "DT_FLOAT", "tensorShape": {"dim": [{"size": "1"}, {"size": "1"}, {"size": "72"}, {"size": "288"}]}}}, "dtype": {"type": "DT_FLOAT"}}}, {"name": "StatefulPartitionedCall/sequential_1/MobilenetV3small/expanded_conv_8/squeeze_excite/Conv_1/BiasAdd/ReadVariableOp", "op": "Const", "attr": {"value": {"tensor": {"dtype": "DT_FLOAT", "tensorShape": {"dim": [{"size": "288"}]}}}, "dtype": {"type": "DT_FLOAT"}}}, {"name": "StatefulPartitionedCall/sequential_1/MobilenetV3small/tf.__operators__.add_46/y", "op": "Const", "attr": {"value": {"tensor": {"dtype": "DT_FLOAT", "tensorShape": {}}}, "dtype": {"type": "DT_FLOAT"}}}, {"name": "StatefulPartitionedCall/sequential_1/MobilenetV3small/tf.math.multiply_45/Mul/y", "op": "Const", "attr": {"value": {"tensor": {"dtype": "DT_FLOAT", "tensorShape": {}}}, "dtype": {"type": "DT_FLOAT"}}}, {"name": "StatefulPartitionedCall/sequential_1/MobilenetV3small/tf.math.multiply_44/Mul/y", "op": "Const", "attr": {"value": {"tensor": {"dtype": "DT_FLOAT", "tensorShape": {}}}, "dtype": {"type": "DT_FLOAT"}}}, {"name": "StatefulPartitionedCall/sequential_1/MobilenetV3small/tf.math.multiply_43/Mul/y", "op": "Const", "attr": {"dtype": {"type": "DT_FLOAT"}, "value": {"tensor": {"dtype": "DT_FLOAT", "tensorShape": {}}}}}, {"name": "StatefulPartitionedCall/sequential_1/MobilenetV3small/expanded_conv_7/squeeze_excite/AvgPool/Mean/reduction_indices", "op": "Const", "attr": {"value": {"tensor": {"dtype": "DT_INT32", "tensorShape": {"dim": [{"size": "2"}]}}}, "dtype": {"type": "DT_INT32"}}}, {"name": "StatefulPartitionedCall/sequential_1/MobilenetV3small/expanded_conv_7/squeeze_excite/Conv/Conv2D/ReadVariableOp", "op": "Const", "attr": {"dtype": {"type": "DT_FLOAT"}, "value": {"tensor": {"dtype": "DT_FLOAT", "tensorShape": {"dim": [{"size": "1"}, {"size": "1"}, {"size": "144"}, {"size": "40"}]}}}}}, {"name": "StatefulPartitionedCall/sequential_1/MobilenetV3small/expanded_conv_7/squeeze_excite/Conv/BiasAdd/ReadVariableOp", "op": "Const", "attr": {"value": {"tensor": {"dtype": "DT_FLOAT", "tensorShape": {"dim": [{"size": "40"}]}}}, "dtype": {"type": "DT_FLOAT"}}}, {"name": "StatefulPartitionedCall/sequential_1/MobilenetV3small/expanded_conv_7/squeeze_excite/Conv_1/Conv2D/ReadVariableOp", "op": "Const", "attr": {"value": {"tensor": {"dtype": "DT_FLOAT", "tensorShape": {"dim": [{"size": "1"}, {"size": "1"}, {"size": "40"}, {"size": "144"}]}}}, "dtype": {"type": "DT_FLOAT"}}}, {"name": "StatefulPartitionedCall/sequential_1/MobilenetV3small/expanded_conv_7/squeeze_excite/Conv_1/BiasAdd/ReadVariableOp", "op": "Const", "attr": {"value": {"tensor": {"dtype": "DT_FLOAT", "tensorShape": {"dim": [{"size": "144"}]}}}, "dtype": {"type": "DT_FLOAT"}}}, {"name": "StatefulPartitionedCall/sequential_1/MobilenetV3small/tf.__operators__.add_43/y", "op": "Const", "attr": {"dtype": {"type": "DT_FLOAT"}, "value": {"tensor": {"dtype": "DT_FLOAT", "tensorShape": {}}}}}, {"name": "StatefulPartitionedCall/sequential_1/MobilenetV3small/tf.math.multiply_42/Mul/y", "op": "Const", "attr": {"dtype": {"type": "DT_FLOAT"}, "value": {"tensor": {"dtype": "DT_FLOAT", "tensorShape": {}}}}}, {"name": "StatefulPartitionedCall/sequential_1/MobilenetV3small/tf.math.multiply_41/Mul/y", "op": "Const", "attr": {"value": {"tensor": {"dtype": "DT_FLOAT", "tensorShape": {}}}, "dtype": {"type": "DT_FLOAT"}}}, {"name": "StatefulPartitionedCall/sequential_1/MobilenetV3small/tf.math.multiply_40/Mul/y", "op": "Const", "attr": {"value": {"tensor": {"dtype": "DT_FLOAT", "tensorShape": {}}}, "dtype": {"type": "DT_FLOAT"}}}, {"name": "StatefulPartitionedCall/sequential_1/MobilenetV3small/expanded_conv_6/squeeze_excite/AvgPool/Mean/reduction_indices", "op": "Const", "attr": {"value": {"tensor": {"dtype": "DT_INT32", "tensorShape": {"dim": [{"size": "2"}]}}}, "dtype": {"type": "DT_INT32"}}}, {"name": "StatefulPartitionedCall/sequential_1/MobilenetV3small/expanded_conv_6/squeeze_excite/Conv/Conv2D/ReadVariableOp", "op": "Const", "attr": {"dtype": {"type": "DT_FLOAT"}, "value": {"tensor": {"dtype": "DT_FLOAT", "tensorShape": {"dim": [{"size": "1"}, {"size": "1"}, {"size": "120"}, {"size": "32"}]}}}}}, {"name": "StatefulPartitionedCall/sequential_1/MobilenetV3small/expanded_conv_6/squeeze_excite/Conv/BiasAdd/ReadVariableOp", "op": "Const", "attr": {"value": {"tensor": {"dtype": "DT_FLOAT", "tensorShape": {"dim": [{"size": "32"}]}}}, "dtype": {"type": "DT_FLOAT"}}}, {"name": "StatefulPartitionedCall/sequential_1/MobilenetV3small/expanded_conv_6/squeeze_excite/Conv_1/Conv2D/ReadVariableOp", "op": "Const", "attr": {"value": {"tensor": {"dtype": "DT_FLOAT", "tensorShape": {"dim": [{"size": "1"}, {"size": "1"}, {"size": "32"}, {"size": "120"}]}}}, "dtype": {"type": "DT_FLOAT"}}}, {"name": "StatefulPartitionedCall/sequential_1/MobilenetV3small/expanded_conv_6/squeeze_excite/Conv_1/BiasAdd/ReadVariableOp", "op": "Const", "attr": {"dtype": {"type": "DT_FLOAT"}, "value": {"tensor": {"dtype": "DT_FLOAT", "tensorShape": {"dim": [{"size": "120"}]}}}}}, {"name": "StatefulPartitionedCall/sequential_1/MobilenetV3small/tf.__operators__.add_40/y", "op": "Const", "attr": {"dtype": {"type": "DT_FLOAT"}, "value": {"tensor": {"dtype": "DT_FLOAT", "tensorShape": {}}}}}, {"name": "StatefulPartitionedCall/sequential_1/MobilenetV3small/tf.math.multiply_39/Mul/y", "op": "Const", "attr": {"value": {"tensor": {"dtype": "DT_FLOAT", "tensorShape": {}}}, "dtype": {"type": "DT_FLOAT"}}}, {"name": "StatefulPartitionedCall/sequential_1/MobilenetV3small/tf.math.multiply_38/Mul/y", "op": "Const", "attr": {"dtype": {"type": "DT_FLOAT"}, "value": {"tensor": {"dtype": "DT_FLOAT", "tensorShape": {}}}}}, {"name": "StatefulPartitionedCall/sequential_1/MobilenetV3small/tf.math.multiply_37/Mul/y", "op": "Const", "attr": {"value": {"tensor": {"dtype": "DT_FLOAT", "tensorShape": {}}}, "dtype": {"type": "DT_FLOAT"}}}, {"name": "StatefulPartitionedCall/sequential_1/MobilenetV3small/expanded_conv_5/squeeze_excite/AvgPool/Mean/reduction_indices", "op": "Const", "attr": {"value": {"tensor": {"dtype": "DT_INT32", "tensorShape": {"dim": [{"size": "2"}]}}}, "dtype": {"type": "DT_INT32"}}}, {"name": "StatefulPartitionedCall/sequential_1/MobilenetV3small/expanded_conv_5/squeeze_excite/Conv/Conv2D/ReadVariableOp", "op": "Const", "attr": {"value": {"tensor": {"dtype": "DT_FLOAT", "tensorShape": {"dim": [{"size": "1"}, {"size": "1"}, {"size": "240"}, {"size": "64"}]}}}, "dtype": {"type": "DT_FLOAT"}}}, {"name": "StatefulPartitionedCall/sequential_1/MobilenetV3small/expanded_conv_5/squeeze_excite/Conv/BiasAdd/ReadVariableOp", "op": "Const", "attr": {"dtype": {"type": "DT_FLOAT"}, "value": {"tensor": {"dtype": "DT_FLOAT", "tensorShape": {"dim": [{"size": "64"}]}}}}}, {"name": "StatefulPartitionedCall/sequential_1/MobilenetV3small/expanded_conv_5/squeeze_excite/Conv_1/Conv2D/ReadVariableOp", "op": "Const", "attr": {"dtype": {"type": "DT_FLOAT"}, "value": {"tensor": {"dtype": "DT_FLOAT", "tensorShape": {"dim": [{"size": "1"}, {"size": "1"}, {"size": "64"}, {"size": "240"}]}}}}}, {"name": "StatefulPartitionedCall/sequential_1/MobilenetV3small/expanded_conv_5/squeeze_excite/Conv_1/BiasAdd/ReadVariableOp", "op": "Const", "attr": {"dtype": {"type": "DT_FLOAT"}, "value": {"tensor": {"dtype": "DT_FLOAT", "tensorShape": {"dim": [{"size": "240"}]}}}}}, {"name": "StatefulPartitionedCall/sequential_1/MobilenetV3small/tf.__operators__.add_37/y", "op": "Const", "attr": {"value": {"tensor": {"dtype": "DT_FLOAT", "tensorShape": {}}}, "dtype": {"type": "DT_FLOAT"}}}, {"name": "StatefulPartitionedCall/sequential_1/MobilenetV3small/tf.math.multiply_36/Mul/y", "op": "Const", "attr": {"value": {"tensor": {"dtype": "DT_FLOAT", "tensorShape": {}}}, "dtype": {"type": "DT_FLOAT"}}}, {"name": "StatefulPartitionedCall/sequential_1/MobilenetV3small/tf.math.multiply_35/Mul/y", "op": "Const", "attr": {"value": {"tensor": {"dtype": "DT_FLOAT", "tensorShape": {}}}, "dtype": {"type": "DT_FLOAT"}}}, {"name": "StatefulPartitionedCall/sequential_1/MobilenetV3small/tf.math.multiply_34/Mul/y", "op": "Const", "attr": {"value": {"tensor": {"dtype": "DT_FLOAT", "tensorShape": {}}}, "dtype": {"type": "DT_FLOAT"}}}, {"name": "StatefulPartitionedCall/sequential_1/MobilenetV3small/expanded_conv_4/squeeze_excite/AvgPool/Mean/reduction_indices", "op": "Const", "attr": {"dtype": {"type": "DT_INT32"}, "value": {"tensor": {"dtype": "DT_INT32", "tensorShape": {"dim": [{"size": "2"}]}}}}}, {"name": "StatefulPartitionedCall/sequential_1/MobilenetV3small/expanded_conv_4/squeeze_excite/Conv/Conv2D/ReadVariableOp", "op": "Const", "attr": {"dtype": {"type": "DT_FLOAT"}, "value": {"tensor": {"dtype": "DT_FLOAT", "tensorShape": {"dim": [{"size": "1"}, {"size": "1"}, {"size": "240"}, {"size": "64"}]}}}}}, {"name": "StatefulPartitionedCall/sequential_1/MobilenetV3small/expanded_conv_4/squeeze_excite/Conv/BiasAdd/ReadVariableOp", "op": "Const", "attr": {"dtype": {"type": "DT_FLOAT"}, "value": {"tensor": {"dtype": "DT_FLOAT", "tensorShape": {"dim": [{"size": "64"}]}}}}}, {"name": "StatefulPartitionedCall/sequential_1/MobilenetV3small/expanded_conv_4/squeeze_excite/Conv_1/Conv2D/ReadVariableOp", "op": "Const", "attr": {"dtype": {"type": "DT_FLOAT"}, "value": {"tensor": {"dtype": "DT_FLOAT", "tensorShape": {"dim": [{"size": "1"}, {"size": "1"}, {"size": "64"}, {"size": "240"}]}}}}}, {"name": "StatefulPartitionedCall/sequential_1/MobilenetV3small/expanded_conv_4/squeeze_excite/Conv_1/BiasAdd/ReadVariableOp", "op": "Const", "attr": {"value": {"tensor": {"dtype": "DT_FLOAT", "tensorShape": {"dim": [{"size": "240"}]}}}, "dtype": {"type": "DT_FLOAT"}}}, {"name": "StatefulPartitionedCall/sequential_1/MobilenetV3small/tf.__operators__.add_34/y", "op": "Const", "attr": {"value": {"tensor": {"dtype": "DT_FLOAT", "tensorShape": {}}}, "dtype": {"type": "DT_FLOAT"}}}, {"name": "StatefulPartitionedCall/sequential_1/MobilenetV3small/tf.math.multiply_33/Mul/y", "op": "Const", "attr": {"value": {"tensor": {"dtype": "DT_FLOAT", "tensorShape": {}}}, "dtype": {"type": "DT_FLOAT"}}}, {"name": "StatefulPartitionedCall/sequential_1/MobilenetV3small/tf.math.multiply_32/Mul/y", "op": "Const", "attr": {"value": {"tensor": {"dtype": "DT_FLOAT", "tensorShape": {}}}, "dtype": {"type": "DT_FLOAT"}}}, {"name": "StatefulPartitionedCall/sequential_1/MobilenetV3small/tf.math.multiply_31/Mul/y", "op": "Const", "attr": {"value": {"tensor": {"dtype": "DT_FLOAT", "tensorShape": {}}}, "dtype": {"type": "DT_FLOAT"}}}, {"name": "StatefulPartitionedCall/sequential_1/MobilenetV3small/expanded_conv_3/squeeze_excite/AvgPool/Mean/reduction_indices", "op": "Const", "attr": {"dtype": {"type": "DT_INT32"}, "value": {"tensor": {"dtype": "DT_INT32", "tensorShape": {"dim": [{"size": "2"}]}}}}}, {"name": "StatefulPartitionedCall/sequential_1/MobilenetV3small/expanded_conv_3/squeeze_excite/Conv/Conv2D/ReadVariableOp", "op": "Const", "attr": {"value": {"tensor": {"dtype": "DT_FLOAT", "tensorShape": {"dim": [{"size": "1"}, {"size": "1"}, {"size": "96"}, {"size": "24"}]}}}, "dtype": {"type": "DT_FLOAT"}}}, {"name": "StatefulPartitionedCall/sequential_1/MobilenetV3small/expanded_conv_3/squeeze_excite/Conv/BiasAdd/ReadVariableOp", "op": "Const", "attr": {"dtype": {"type": "DT_FLOAT"}, "value": {"tensor": {"dtype": "DT_FLOAT", "tensorShape": {"dim": [{"size": "24"}]}}}}}, {"name": "StatefulPartitionedCall/sequential_1/MobilenetV3small/expanded_conv_3/squeeze_excite/Conv_1/Conv2D/ReadVariableOp", "op": "Const", "attr": {"dtype": {"type": "DT_FLOAT"}, "value": {"tensor": {"dtype": "DT_FLOAT", "tensorShape": {"dim": [{"size": "1"}, {"size": "1"}, {"size": "24"}, {"size": "96"}]}}}}}, {"name": "StatefulPartitionedCall/sequential_1/MobilenetV3small/expanded_conv_3/squeeze_excite/Conv_1/BiasAdd/ReadVariableOp", "op": "Const", "attr": {"dtype": {"type": "DT_FLOAT"}, "value": {"tensor": {"dtype": "DT_FLOAT", "tensorShape": {"dim": [{"size": "96"}]}}}}}, {"name": "StatefulPartitionedCall/sequential_1/MobilenetV3small/tf.__operators__.add_31/y", "op": "Const", "attr": {"dtype": {"type": "DT_FLOAT"}, "value": {"tensor": {"dtype": "DT_FLOAT", "tensorShape": {}}}}}, {"name": "StatefulPartitionedCall/sequential_1/MobilenetV3small/tf.math.multiply_30/Mul/y", "op": "Const", "attr": {"dtype": {"type": "DT_FLOAT"}, "value": {"tensor": {"dtype": "DT_FLOAT", "tensorShape": {}}}}}, {"name": "StatefulPartitionedCall/sequential_1/MobilenetV3small/tf.math.multiply_29/Mul/y", "op": "Const", "attr": {"dtype": {"type": "DT_FLOAT"}, "value": {"tensor": {"dtype": "DT_FLOAT", "tensorShape": {}}}}}, {"name": "StatefulPartitionedCall/sequential_1/MobilenetV3small/tf.math.multiply_28/Mul/y", "op": "Const", "attr": {"dtype": {"type": "DT_FLOAT"}, "value": {"tensor": {"dtype": "DT_FLOAT", "tensorShape": {}}}}}, {"name": "StatefulPartitionedCall/sequential_1/MobilenetV3small/expanded_conv/squeeze_excite/AvgPool/Mean/reduction_indices", "op": "Const", "attr": {"value": {"tensor": {"dtype": "DT_INT32", "tensorShape": {"dim": [{"size": "2"}]}}}, "dtype": {"type": "DT_INT32"}}}, {"name": "StatefulPartitionedCall/sequential_1/MobilenetV3small/expanded_conv/squeeze_excite/Conv/Conv2D/ReadVariableOp", "op": "Const", "attr": {"value": {"tensor": {"dtype": "DT_FLOAT", "tensorShape": {"dim": [{"size": "1"}, {"size": "1"}, {"size": "16"}, {"size": "8"}]}}}, "dtype": {"type": "DT_FLOAT"}}}, {"name": "StatefulPartitionedCall/sequential_1/MobilenetV3small/expanded_conv/squeeze_excite/Conv/BiasAdd/ReadVariableOp", "op": "Const", "attr": {"value": {"tensor": {"dtype": "DT_FLOAT", "tensorShape": {"dim": [{"size": "8"}]}}}, "dtype": {"type": "DT_FLOAT"}}}, {"name": "StatefulPartitionedCall/sequential_1/MobilenetV3small/expanded_conv/squeeze_excite/Conv_1/Conv2D/ReadVariableOp", "op": "Const", "attr": {"dtype": {"type": "DT_FLOAT"}, "value": {"tensor": {"dtype": "DT_FLOAT", "tensorShape": {"dim": [{"size": "1"}, {"size": "1"}, {"size": "8"}, {"size": "16"}]}}}}}, {"name": "StatefulPartitionedCall/sequential_1/MobilenetV3small/expanded_conv/squeeze_excite/Conv_1/BiasAdd/ReadVariableOp", "op": "Const", "attr": {"dtype": {"type": "DT_FLOAT"}, "value": {"tensor": {"dtype": "DT_FLOAT", "tensorShape": {"dim": [{"size": "16"}]}}}}}, {"name": "StatefulPartitionedCall/sequential_1/MobilenetV3small/tf.__operators__.add_28/y", "op": "Const", "attr": {"dtype": {"type": "DT_FLOAT"}, "value": {"tensor": {"dtype": "DT_FLOAT", "tensorShape": {}}}}}, {"name": "StatefulPartitionedCall/sequential_1/MobilenetV3small/tf.math.multiply_27/Mul/y", "op": "Const", "attr": {"dtype": {"type": "DT_FLOAT"}, "value": {"tensor": {"dtype": "DT_FLOAT", "tensorShape": {}}}}}, {"name": "StatefulPartitionedCall/sequential_1/gray2rgb/concatenate_2/concat/axis", "op": "Const", "attr": {"dtype": {"type": "DT_INT32"}, "value": {"tensor": {"dtype": "DT_INT32", "tensorShape": {}}}}}, {"name": "StatefulPartitionedCall/sequential_1/augmentation/rescaling_5/Cast/x", "op": "Const", "attr": {"value": {"tensor": {"dtype": "DT_FLOAT", "tensorShape": {}}}, "dtype": {"type": "DT_FLOAT"}}}, {"name": "StatefulPartitionedCall/sequential_1/augmentation/rescaling_5/Cast_1/x", "op": "Const", "attr": {"value": {"tensor": {"dtype": "DT_FLOAT", "tensorShape": {}}}, "dtype": {"type": "DT_FLOAT"}}}, {"name": "StatefulPartitionedCall/sequential_1/augmentation/rescaling_6/Cast", "op": "Const", "attr": {"dtype": {"type": "DT_FLOAT"}, "value": {"tensor": {"dtype": "DT_FLOAT", "tensorShape": {}}}}}, {"name": "StatefulPartitionedCall/sequential_1/augmentation/rescaling_6/Cast_1/x", "op": "Const", "attr": {"dtype": {"type": "DT_FLOAT"}, "value": {"tensor": {"dtype": "DT_FLOAT", "tensorShape": {}}}}}, {"name": "StatefulPartitionedCall/sequential_1/MobilenetV3small/rescaling_4/Cast/x", "op": "Const", "attr": {"value": {"tensor": {"dtype": "DT_FLOAT", "tensorShape": {}}}, "dtype": {"type": "DT_FLOAT"}}}, {"name": "StatefulPartitionedCall/sequential_1/MobilenetV3small/rescaling_4/Cast_1/x", "op": "Const", "attr": {"dtype": {"type": "DT_FLOAT"}, "value": {"tensor": {"dtype": "DT_FLOAT", "tensorShape": {}}}}}, {"name": "StatefulPartitionedCall/sequential_1/MobilenetV3small/tf.__operators__.add_27/y", "op": "Const", "attr": {"dtype": {"type": "DT_FLOAT"}, "value": {"tensor": {"dtype": "DT_FLOAT", "tensorShape": {}}}}}, {"name": "StatefulPartitionedCall/sequential_1/MobilenetV3small/expanded_conv/depthwise/pad/Pad/paddings", "op": "Const", "attr": {"dtype": {"type": "DT_INT32"}, "value": {"tensor": {"dtype": "DT_INT32", "tensorShape": {"dim": [{"size": "4"}, {"size": "2"}]}}}}}, {"name": "StatefulPartitionedCall/sequential_1/MobilenetV3small/expanded_conv_1/depthwise/pad/Pad/paddings", "op": "Const", "attr": {"dtype": {"type": "DT_INT32"}, "value": {"tensor": {"dtype": "DT_INT32", "tensorShape": {"dim": [{"size": "4"}, {"size": "2"}]}}}}}, {"name": "StatefulPartitionedCall/sequential_1/MobilenetV3small/tf.__operators__.add_29/y", "op": "Const", "attr": {"dtype": {"type": "DT_FLOAT"}, "value": {"tensor": {"dtype": "DT_FLOAT", "tensorShape": {}}}}}, {"name": "StatefulPartitionedCall/sequential_1/MobilenetV3small/expanded_conv_3/depthwise/pad/Pad/paddings", "op": "Const", "attr": {"dtype": {"type": "DT_INT32"}, "value": {"tensor": {"dtype": "DT_INT32", "tensorShape": {"dim": [{"size": "4"}, {"size": "2"}]}}}}}, {"name": "StatefulPartitionedCall/sequential_1/MobilenetV3small/tf.__operators__.add_30/y", "op": "Const", "attr": {"value": {"tensor": {"dtype": "DT_FLOAT", "tensorShape": {}}}, "dtype": {"type": "DT_FLOAT"}}}, {"name": "StatefulPartitionedCall/sequential_1/MobilenetV3small/tf.__operators__.add_32/y", "op": "Const", "attr": {"dtype": {"type": "DT_FLOAT"}, "value": {"tensor": {"dtype": "DT_FLOAT", "tensorShape": {}}}}}, {"name": "StatefulPartitionedCall/sequential_1/MobilenetV3small/tf.__operators__.add_33/y", "op": "Const", "attr": {"value": {"tensor": {"dtype": "DT_FLOAT", "tensorShape": {}}}, "dtype": {"type": "DT_FLOAT"}}}, {"name": "StatefulPartitionedCall/sequential_1/MobilenetV3small/tf.__operators__.add_35/y", "op": "Const", "attr": {"dtype": {"type": "DT_FLOAT"}, "value": {"tensor": {"dtype": "DT_FLOAT", "tensorShape": {}}}}}, {"name": "StatefulPartitionedCall/sequential_1/MobilenetV3small/tf.__operators__.add_36/y", "op": "Const", "attr": {"dtype": {"type": "DT_FLOAT"}, "value": {"tensor": {"dtype": "DT_FLOAT", "tensorShape": {}}}}}, {"name": "StatefulPartitionedCall/sequential_1/MobilenetV3small/tf.__operators__.add_38/y", "op": "Const", "attr": {"value": {"tensor": {"dtype": "DT_FLOAT", "tensorShape": {}}}, "dtype": {"type": "DT_FLOAT"}}}, {"name": "StatefulPartitionedCall/sequential_1/MobilenetV3small/tf.__operators__.add_39/y", "op": "Const", "attr": {"dtype": {"type": "DT_FLOAT"}, "value": {"tensor": {"dtype": "DT_FLOAT", "tensorShape": {}}}}}, {"name": "StatefulPartitionedCall/sequential_1/MobilenetV3small/tf.__operators__.add_41/y", "op": "Const", "attr": {"dtype": {"type": "DT_FLOAT"}, "value": {"tensor": {"dtype": "DT_FLOAT", "tensorShape": {}}}}}, {"name": "StatefulPartitionedCall/sequential_1/MobilenetV3small/tf.__operators__.add_42/y", "op": "Const", "attr": {"value": {"tensor": {"dtype": "DT_FLOAT", "tensorShape": {}}}, "dtype": {"type": "DT_FLOAT"}}}, {"name": "StatefulPartitionedCall/sequential_1/MobilenetV3small/tf.__operators__.add_44/y", "op": "Const", "attr": {"value": {"tensor": {"dtype": "DT_FLOAT", "tensorShape": {}}}, "dtype": {"type": "DT_FLOAT"}}}, {"name": "StatefulPartitionedCall/sequential_1/MobilenetV3small/expanded_conv_8/depthwise/pad/Pad/paddings", "op": "Const", "attr": {"value": {"tensor": {"dtype": "DT_INT32", "tensorShape": {"dim": [{"size": "4"}, {"size": "2"}]}}}, "dtype": {"type": "DT_INT32"}}}, {"name": "StatefulPartitionedCall/sequential_1/MobilenetV3small/tf.__operators__.add_45/y", "op": "Const", "attr": {"value": {"tensor": {"dtype": "DT_FLOAT", "tensorShape": {}}}, "dtype": {"type": "DT_FLOAT"}}}, {"name": "StatefulPartitionedCall/sequential_1/MobilenetV3small/tf.__operators__.add_47/y", "op": "Const", "attr": {"dtype": {"type": "DT_FLOAT"}, "value": {"tensor": {"dtype": "DT_FLOAT", "tensorShape": {}}}}}, {"name": "StatefulPartitionedCall/sequential_1/MobilenetV3small/tf.__operators__.add_48/y", "op": "Const", "attr": {"value": {"tensor": {"dtype": "DT_FLOAT", "tensorShape": {}}}, "dtype": {"type": "DT_FLOAT"}}}, {"name": "StatefulPartitionedCall/sequential_1/MobilenetV3small/tf.__operators__.add_50/y", "op": "Const", "attr": {"value": {"tensor": {"dtype": "DT_FLOAT", "tensorShape": {}}}, "dtype": {"type": "DT_FLOAT"}}}, {"name": "StatefulPartitionedCall/sequential_1/MobilenetV3small/tf.__operators__.add_51/y", "op": "Const", "attr": {"value": {"tensor": {"dtype": "DT_FLOAT", "tensorShape": {}}}, "dtype": {"type": "DT_FLOAT"}}}, {"name": "StatefulPartitionedCall/sequential_1/MobilenetV3small/tf.__operators__.add_53/y", "op": "Const", "attr": {"value": {"tensor": {"dtype": "DT_FLOAT", "tensorShape": {}}}, "dtype": {"type": "DT_FLOAT"}}}, {"name": "StatefulPartitionedCall/sequential_1/global_average_pooling2d_1/Mean/reduction_indices", "op": "Const", "attr": {"value": {"tensor": {"dtype": "DT_INT32", "tensorShape": {"dim": [{"size": "2"}]}}}, "dtype": {"type": "DT_INT32"}}}, {"name": "StatefulPartitionedCall/sequential_1/batch_normalization/batchnorm/mul", "op": "Const", "attr": {"value": {"tensor": {"dtype": "DT_FLOAT", "tensorShape": {"dim": [{"size": "576"}]}}}, "dtype": {"type": "DT_FLOAT"}}}, {"name": "StatefulPartitionedCall/sequential_1/batch_normalization/batchnorm/sub", "op": "Const", "attr": {"dtype": {"type": "DT_FLOAT"}, "value": {"tensor": {"dtype": "DT_FLOAT", "tensorShape": {"dim": [{"size": "576"}]}}}}}, {"name": "StatefulPartitionedCall/sequential_1/dense_1/MatMul/ReadVariableOp", "op": "Const", "attr": {"dtype": {"type": "DT_FLOAT"}, "value": {"tensor": {"dtype": "DT_FLOAT", "tensorShape": {"dim": [{"size": "576"}, {"size": "3036"}]}}}}}, {"name": "StatefulPartitionedCall/sequential_1/dense_1/BiasAdd/ReadVariableOp", "op": "Const", "attr": {"value": {"tensor": {"dtype": "DT_FLOAT", "tensorShape": {"dim": [{"size": "3036"}]}}}, "dtype": {"type": "DT_FLOAT"}}}, {"name": "gray2rgb_input", "op": "Placeholder", "attr": {"shape": {"shape": {"dim": [{"size": "-1"}, {"size": "64"}, {"size": "64"}, {"size": "1"}]}}, "dtype": {"type": "DT_FLOAT"}}}, {"name": "StatefulPartitionedCall/sequential_1/MobilenetV3small/Conv/Conv2D_weights", "op": "Const", "attr": {"value": {"tensor": {"dtype": "DT_FLOAT", "tensorShape": {"dim": [{"size": "3"}, {"size": "3"}, {"size": "3"}, {"size": "16"}]}}}, "dtype": {"type": "DT_FLOAT"}}}, {"name": "StatefulPartitionedCall/sequential_1/MobilenetV3small/Conv/Conv2D_bn_offset", "op": "Const", "attr": {"value": {"tensor": {"dtype": "DT_FLOAT", "tensorShape": {"dim": [{"size": "16"}]}}}, "dtype": {"type": "DT_FLOAT"}}}, {"name": "StatefulPartitionedCall/sequential_1/MobilenetV3small/expanded_conv/depthwise/depthwise_weights", "op": "Const", "attr": {"value": {"tensor": {"dtype": "DT_FLOAT", "tensorShape": {"dim": [{"size": "3"}, {"size": "3"}, {"size": "16"}, {"size": "1"}]}}}, "dtype": {"type": "DT_FLOAT"}}}, {"name": "StatefulPartitionedCall/sequential_1/MobilenetV3small/expanded_conv/depthwise/depthwise_bn_offset", "op": "Const", "attr": {"value": {"tensor": {"dtype": "DT_FLOAT", "tensorShape": {"dim": [{"size": "16"}]}}}, "dtype": {"type": "DT_FLOAT"}}}, {"name": "StatefulPartitionedCall/sequential_1/MobilenetV3small/expanded_conv_9/project/Conv2D_weights", "op": "Const", "attr": {"dtype": {"type": "DT_FLOAT"}, "value": {"tensor": {"dtype": "DT_FLOAT", "tensorShape": {"dim": [{"size": "1"}, {"size": "1"}, {"size": "576"}, {"size": "96"}]}}}}}, {"name": "StatefulPartitionedCall/sequential_1/MobilenetV3small/expanded_conv/project/Conv2D_weights", "op": "Const", "attr": {"dtype": {"type": "DT_FLOAT"}, "value": {"tensor": {"dtype": "DT_FLOAT", "tensorShape": {"dim": [{"size": "1"}, {"size": "1"}, {"size": "16"}, {"size": "16"}]}}}}}, {"name": "StatefulPartitionedCall/sequential_1/MobilenetV3small/expanded_conv_9/project/Conv2D_bn_offset", "op": "Const", "attr": {"value": {"tensor": {"dtype": "DT_FLOAT", "tensorShape": {"dim": [{"size": "96"}]}}}, "dtype": {"type": "DT_FLOAT"}}}, {"name": "StatefulPartitionedCall/sequential_1/MobilenetV3small/expanded_conv/project/Conv2D_bn_offset", "op": "Const", "attr": {"value": {"tensor": {"dtype": "DT_FLOAT", "tensorShape": {"dim": [{"size": "16"}]}}}, "dtype": {"type": "DT_FLOAT"}}}, {"name": "StatefulPartitionedCall/sequential_1/MobilenetV3small/expanded_conv_1/expand/Conv2D_weights", "op": "Const", "attr": {"value": {"tensor": {"dtype": "DT_FLOAT", "tensorShape": {"dim": [{"size": "1"}, {"size": "1"}, {"size": "16"}, {"size": "72"}]}}}, "dtype": {"type": "DT_FLOAT"}}}, {"name": "StatefulPartitionedCall/sequential_1/MobilenetV3small/expanded_conv_1/expand/Conv2D_bn_offset", "op": "Const", "attr": {"value": {"tensor": {"dtype": "DT_FLOAT", "tensorShape": {"dim": [{"size": "72"}]}}}, "dtype": {"type": "DT_FLOAT"}}}, {"name": "StatefulPartitionedCall/sequential_1/MobilenetV3small/expanded_conv_1/depthwise/depthwise_weights", "op": "Const", "attr": {"dtype": {"type": "DT_FLOAT"}, "value": {"tensor": {"dtype": "DT_FLOAT", "tensorShape": {"dim": [{"size": "3"}, {"size": "3"}, {"size": "72"}, {"size": "1"}]}}}}}, {"name": "StatefulPartitionedCall/sequential_1/MobilenetV3small/expanded_conv_1/depthwise/depthwise_bn_offset", "op": "Const", "attr": {"value": {"tensor": {"dtype": "DT_FLOAT", "tensorShape": {"dim": [{"size": "72"}]}}}, "dtype": {"type": "DT_FLOAT"}}}, {"name": "StatefulPartitionedCall/sequential_1/MobilenetV3small/expanded_conv_1/project/Conv2D_weights", "op": "Const", "attr": {"value": {"tensor": {"dtype": "DT_FLOAT", "tensorShape": {"dim": [{"size": "1"}, {"size": "1"}, {"size": "72"}, {"size": "24"}]}}}, "dtype": {"type": "DT_FLOAT"}}}, {"name": "StatefulPartitionedCall/sequential_1/MobilenetV3small/expanded_conv_10/expand/Conv2D_weights", "op": "Const", "attr": {"dtype": {"type": "DT_FLOAT"}, "value": {"tensor": {"dtype": "DT_FLOAT", "tensorShape": {"dim": [{"size": "1"}, {"size": "1"}, {"size": "96"}, {"size": "576"}]}}}}}, {"name": "StatefulPartitionedCall/sequential_1/MobilenetV3small/expanded_conv_1/project/Conv2D_bn_offset", "op": "Const", "attr": {"dtype": {"type": "DT_FLOAT"}, "value": {"tensor": {"dtype": "DT_FLOAT", "tensorShape": {"dim": [{"size": "24"}]}}}}}, {"name": "StatefulPartitionedCall/sequential_1/MobilenetV3small/expanded_conv_2/expand/Conv2D_weights", "op": "Const", "attr": {"dtype": {"type": "DT_FLOAT"}, "value": {"tensor": {"dtype": "DT_FLOAT", "tensorShape": {"dim": [{"size": "1"}, {"size": "1"}, {"size": "24"}, {"size": "88"}]}}}}}, {"name": "StatefulPartitionedCall/sequential_1/MobilenetV3small/expanded_conv_2/expand/Conv2D_bn_offset", "op": "Const", "attr": {"value": {"tensor": {"dtype": "DT_FLOAT", "tensorShape": {"dim": [{"size": "88"}]}}}, "dtype": {"type": "DT_FLOAT"}}}, {"name": "StatefulPartitionedCall/sequential_1/MobilenetV3small/expanded_conv_10/expand/Conv2D_bn_offset", "op": "Const", "attr": {"value": {"tensor": {"dtype": "DT_FLOAT", "tensorShape": {"dim": [{"size": "576"}]}}}, "dtype": {"type": "DT_FLOAT"}}}, {"name": "StatefulPartitionedCall/sequential_1/MobilenetV3small/expanded_conv_2/depthwise/depthwise_weights", "op": "Const", "attr": {"value": {"tensor": {"dtype": "DT_FLOAT", "tensorShape": {"dim": [{"size": "3"}, {"size": "3"}, {"size": "88"}, {"size": "1"}]}}}, "dtype": {"type": "DT_FLOAT"}}}, {"name": "StatefulPartitionedCall/sequential_1/MobilenetV3small/expanded_conv_2/depthwise/depthwise_bn_offset", "op": "Const", "attr": {"dtype": {"type": "DT_FLOAT"}, "value": {"tensor": {"dtype": "DT_FLOAT", "tensorShape": {"dim": [{"size": "88"}]}}}}}, {"name": "StatefulPartitionedCall/sequential_1/MobilenetV3small/expanded_conv_2/project/Conv2D_weights", "op": "Const", "attr": {"dtype": {"type": "DT_FLOAT"}, "value": {"tensor": {"dtype": "DT_FLOAT", "tensorShape": {"dim": [{"size": "1"}, {"size": "1"}, {"size": "88"}, {"size": "24"}]}}}}}, {"name": "StatefulPartitionedCall/sequential_1/MobilenetV3small/expanded_conv_2/project/Conv2D_bn_offset", "op": "Const", "attr": {"dtype": {"type": "DT_FLOAT"}, "value": {"tensor": {"dtype": "DT_FLOAT", "tensorShape": {"dim": [{"size": "24"}]}}}}}, {"name": "StatefulPartitionedCall/sequential_1/MobilenetV3small/expanded_conv_3/expand/Conv2D_weights", "op": "Const", "attr": {"dtype": {"type": "DT_FLOAT"}, "value": {"tensor": {"dtype": "DT_FLOAT", "tensorShape": {"dim": [{"size": "1"}, {"size": "1"}, {"size": "24"}, {"size": "96"}]}}}}}, {"name": "StatefulPartitionedCall/sequential_1/MobilenetV3small/expanded_conv_3/expand/Conv2D_bn_offset", "op": "Const", "attr": {"value": {"tensor": {"dtype": "DT_FLOAT", "tensorShape": {"dim": [{"size": "96"}]}}}, "dtype": {"type": "DT_FLOAT"}}}, {"name": "StatefulPartitionedCall/sequential_1/MobilenetV3small/expanded_conv_3/depthwise/depthwise_weights", "op": "Const", "attr": {"value": {"tensor": {"dtype": "DT_FLOAT", "tensorShape": {"dim": [{"size": "5"}, {"size": "5"}, {"size": "96"}, {"size": "1"}]}}}, "dtype": {"type": "DT_FLOAT"}}}, {"name": "StatefulPartitionedCall/sequential_1/MobilenetV3small/expanded_conv_3/depthwise/depthwise_bn_offset", "op": "Const", "attr": {"value": {"tensor": {"dtype": "DT_FLOAT", "tensorShape": {"dim": [{"size": "96"}]}}}, "dtype": {"type": "DT_FLOAT"}}}, {"name": "StatefulPartitionedCall/sequential_1/MobilenetV3small/expanded_conv_3/project/Conv2D_weights", "op": "Const", "attr": {"value": {"tensor": {"dtype": "DT_FLOAT", "tensorShape": {"dim": [{"size": "1"}, {"size": "1"}, {"size": "96"}, {"size": "40"}]}}}, "dtype": {"type": "DT_FLOAT"}}}, {"name": "StatefulPartitionedCall/sequential_1/MobilenetV3small/expanded_conv_10/depthwise/depthwise_weights", "op": "Const", "attr": {"value": {"tensor": {"dtype": "DT_FLOAT", "tensorShape": {"dim": [{"size": "5"}, {"size": "5"}, {"size": "576"}, {"size": "1"}]}}}, "dtype": {"type": "DT_FLOAT"}}}, {"name": "StatefulPartitionedCall/sequential_1/MobilenetV3small/expanded_conv_3/project/Conv2D_bn_offset", "op": "Const", "attr": {"dtype": {"type": "DT_FLOAT"}, "value": {"tensor": {"dtype": "DT_FLOAT", "tensorShape": {"dim": [{"size": "40"}]}}}}}, {"name": "StatefulPartitionedCall/sequential_1/MobilenetV3small/expanded_conv_4/expand/Conv2D_weights", "op": "Const", "attr": {"value": {"tensor": {"dtype": "DT_FLOAT", "tensorShape": {"dim": [{"size": "1"}, {"size": "1"}, {"size": "40"}, {"size": "240"}]}}}, "dtype": {"type": "DT_FLOAT"}}}, {"name": "StatefulPartitionedCall/sequential_1/MobilenetV3small/expanded_conv_4/expand/Conv2D_bn_offset", "op": "Const", "attr": {"value": {"tensor": {"dtype": "DT_FLOAT", "tensorShape": {"dim": [{"size": "240"}]}}}, "dtype": {"type": "DT_FLOAT"}}}, {"name": "StatefulPartitionedCall/sequential_1/MobilenetV3small/expanded_conv_4/depthwise/depthwise_weights", "op": "Const", "attr": {"dtype": {"type": "DT_FLOAT"}, "value": {"tensor": {"dtype": "DT_FLOAT", "tensorShape": {"dim": [{"size": "5"}, {"size": "5"}, {"size": "240"}, {"size": "1"}]}}}}}, {"name": "StatefulPartitionedCall/sequential_1/MobilenetV3small/expanded_conv_4/depthwise/depthwise_bn_offset", "op": "Const", "attr": {"value": {"tensor": {"dtype": "DT_FLOAT", "tensorShape": {"dim": [{"size": "240"}]}}}, "dtype": {"type": "DT_FLOAT"}}}, {"name": "StatefulPartitionedCall/sequential_1/MobilenetV3small/expanded_conv_10/depthwise/depthwise_bn_offset", "op": "Const", "attr": {"dtype": {"type": "DT_FLOAT"}, "value": {"tensor": {"dtype": "DT_FLOAT", "tensorShape": {"dim": [{"size": "576"}]}}}}}, {"name": "StatefulPartitionedCall/sequential_1/MobilenetV3small/expanded_conv_4/project/Conv2D_weights", "op": "Const", "attr": {"value": {"tensor": {"dtype": "DT_FLOAT", "tensorShape": {"dim": [{"size": "1"}, {"size": "1"}, {"size": "240"}, {"size": "40"}]}}}, "dtype": {"type": "DT_FLOAT"}}}, {"name": "StatefulPartitionedCall/sequential_1/MobilenetV3small/expanded_conv_4/project/Conv2D_bn_offset", "op": "Const", "attr": {"dtype": {"type": "DT_FLOAT"}, "value": {"tensor": {"dtype": "DT_FLOAT", "tensorShape": {"dim": [{"size": "40"}]}}}}}, {"name": "StatefulPartitionedCall/sequential_1/MobilenetV3small/expanded_conv_5/expand/Conv2D_weights", "op": "Const", "attr": {"dtype": {"type": "DT_FLOAT"}, "value": {"tensor": {"dtype": "DT_FLOAT", "tensorShape": {"dim": [{"size": "1"}, {"size": "1"}, {"size": "40"}, {"size": "240"}]}}}}}, {"name": "StatefulPartitionedCall/sequential_1/MobilenetV3small/expanded_conv_5/expand/Conv2D_bn_offset", "op": "Const", "attr": {"dtype": {"type": "DT_FLOAT"}, "value": {"tensor": {"dtype": "DT_FLOAT", "tensorShape": {"dim": [{"size": "240"}]}}}}}, {"name": "StatefulPartitionedCall/sequential_1/MobilenetV3small/expanded_conv_5/depthwise/depthwise_weights", "op": "Const", "attr": {"dtype": {"type": "DT_FLOAT"}, "value": {"tensor": {"dtype": "DT_FLOAT", "tensorShape": {"dim": [{"size": "5"}, {"size": "5"}, {"size": "240"}, {"size": "1"}]}}}}}, {"name": "StatefulPartitionedCall/sequential_1/MobilenetV3small/expanded_conv_5/depthwise/depthwise_bn_offset", "op": "Const", "attr": {"dtype": {"type": "DT_FLOAT"}, "value": {"tensor": {"dtype": "DT_FLOAT", "tensorShape": {"dim": [{"size": "240"}]}}}}}, {"name": "StatefulPartitionedCall/sequential_1/MobilenetV3small/expanded_conv_5/project/Conv2D_weights", "op": "Const", "attr": {"dtype": {"type": "DT_FLOAT"}, "value": {"tensor": {"dtype": "DT_FLOAT", "tensorShape": {"dim": [{"size": "1"}, {"size": "1"}, {"size": "240"}, {"size": "40"}]}}}}}, {"name": "StatefulPartitionedCall/sequential_1/MobilenetV3small/expanded_conv_5/project/Conv2D_bn_offset", "op": "Const", "attr": {"dtype": {"type": "DT_FLOAT"}, "value": {"tensor": {"dtype": "DT_FLOAT", "tensorShape": {"dim": [{"size": "40"}]}}}}}, {"name": "StatefulPartitionedCall/sequential_1/MobilenetV3small/expanded_conv_6/expand/Conv2D_weights", "op": "Const", "attr": {"dtype": {"type": "DT_FLOAT"}, "value": {"tensor": {"dtype": "DT_FLOAT", "tensorShape": {"dim": [{"size": "1"}, {"size": "1"}, {"size": "40"}, {"size": "120"}]}}}}}, {"name": "StatefulPartitionedCall/sequential_1/MobilenetV3small/expanded_conv_6/expand/Conv2D_bn_offset", "op": "Const", "attr": {"dtype": {"type": "DT_FLOAT"}, "value": {"tensor": {"dtype": "DT_FLOAT", "tensorShape": {"dim": [{"size": "120"}]}}}}}, {"name": "StatefulPartitionedCall/sequential_1/MobilenetV3small/expanded_conv_6/depthwise/depthwise_weights", "op": "Const", "attr": {"value": {"tensor": {"dtype": "DT_FLOAT", "tensorShape": {"dim": [{"size": "5"}, {"size": "5"}, {"size": "120"}, {"size": "1"}]}}}, "dtype": {"type": "DT_FLOAT"}}}, {"name": "StatefulPartitionedCall/sequential_1/MobilenetV3small/expanded_conv_6/depthwise/depthwise_bn_offset", "op": "Const", "attr": {"value": {"tensor": {"dtype": "DT_FLOAT", "tensorShape": {"dim": [{"size": "120"}]}}}, "dtype": {"type": "DT_FLOAT"}}}, {"name": "StatefulPartitionedCall/sequential_1/MobilenetV3small/expanded_conv_6/project/Conv2D_weights", "op": "Const", "attr": {"value": {"tensor": {"dtype": "DT_FLOAT", "tensorShape": {"dim": [{"size": "1"}, {"size": "1"}, {"size": "120"}, {"size": "48"}]}}}, "dtype": {"type": "DT_FLOAT"}}}, {"name": "StatefulPartitionedCall/sequential_1/MobilenetV3small/expanded_conv_6/project/Conv2D_bn_offset", "op": "Const", "attr": {"dtype": {"type": "DT_FLOAT"}, "value": {"tensor": {"dtype": "DT_FLOAT", "tensorShape": {"dim": [{"size": "48"}]}}}}}, {"name": "StatefulPartitionedCall/sequential_1/MobilenetV3small/expanded_conv_7/expand/Conv2D_weights", "op": "Const", "attr": {"value": {"tensor": {"dtype": "DT_FLOAT", "tensorShape": {"dim": [{"size": "1"}, {"size": "1"}, {"size": "48"}, {"size": "144"}]}}}, "dtype": {"type": "DT_FLOAT"}}}, {"name": "StatefulPartitionedCall/sequential_1/MobilenetV3small/expanded_conv_7/expand/Conv2D_bn_offset", "op": "Const", "attr": {"dtype": {"type": "DT_FLOAT"}, "value": {"tensor": {"dtype": "DT_FLOAT", "tensorShape": {"dim": [{"size": "144"}]}}}}}, {"name": "StatefulPartitionedCall/sequential_1/MobilenetV3small/expanded_conv_7/depthwise/depthwise_weights", "op": "Const", "attr": {"dtype": {"type": "DT_FLOAT"}, "value": {"tensor": {"dtype": "DT_FLOAT", "tensorShape": {"dim": [{"size": "5"}, {"size": "5"}, {"size": "144"}, {"size": "1"}]}}}}}, {"name": "StatefulPartitionedCall/sequential_1/MobilenetV3small/expanded_conv_7/depthwise/depthwise_bn_offset", "op": "Const", "attr": {"value": {"tensor": {"dtype": "DT_FLOAT", "tensorShape": {"dim": [{"size": "144"}]}}}, "dtype": {"type": "DT_FLOAT"}}}, {"name": "StatefulPartitionedCall/sequential_1/MobilenetV3small/expanded_conv_10/project/Conv2D_weights", "op": "Const", "attr": {"dtype": {"type": "DT_FLOAT"}, "value": {"tensor": {"dtype": "DT_FLOAT", "tensorShape": {"dim": [{"size": "1"}, {"size": "1"}, {"size": "576"}, {"size": "96"}]}}}}}, {"name": "StatefulPartitionedCall/sequential_1/MobilenetV3small/expanded_conv_7/project/Conv2D_weights", "op": "Const", "attr": {"dtype": {"type": "DT_FLOAT"}, "value": {"tensor": {"dtype": "DT_FLOAT", "tensorShape": {"dim": [{"size": "1"}, {"size": "1"}, {"size": "144"}, {"size": "48"}]}}}}}, {"name": "StatefulPartitionedCall/sequential_1/MobilenetV3small/expanded_conv_10/project/Conv2D_bn_offset", "op": "Const", "attr": {"dtype": {"type": "DT_FLOAT"}, "value": {"tensor": {"dtype": "DT_FLOAT", "tensorShape": {"dim": [{"size": "96"}]}}}}}, {"name": "StatefulPartitionedCall/sequential_1/MobilenetV3small/expanded_conv_7/project/Conv2D_bn_offset", "op": "Const", "attr": {"dtype": {"type": "DT_FLOAT"}, "value": {"tensor": {"dtype": "DT_FLOAT", "tensorShape": {"dim": [{"size": "48"}]}}}}}, {"name": "StatefulPartitionedCall/sequential_1/MobilenetV3small/expanded_conv_8/expand/Conv2D_weights", "op": "Const", "attr": {"dtype": {"type": "DT_FLOAT"}, "value": {"tensor": {"dtype": "DT_FLOAT", "tensorShape": {"dim": [{"size": "1"}, {"size": "1"}, {"size": "48"}, {"size": "288"}]}}}}}, {"name": "StatefulPartitionedCall/sequential_1/MobilenetV3small/expanded_conv_8/expand/Conv2D_bn_offset", "op": "Const", "attr": {"dtype": {"type": "DT_FLOAT"}, "value": {"tensor": {"dtype": "DT_FLOAT", "tensorShape": {"dim": [{"size": "288"}]}}}}}, {"name": "StatefulPartitionedCall/sequential_1/MobilenetV3small/expanded_conv_8/depthwise/depthwise_weights", "op": "Const", "attr": {"value": {"tensor": {"dtype": "DT_FLOAT", "tensorShape": {"dim": [{"size": "5"}, {"size": "5"}, {"size": "288"}, {"size": "1"}]}}}, "dtype": {"type": "DT_FLOAT"}}}, {"name": "StatefulPartitionedCall/sequential_1/MobilenetV3small/expanded_conv_8/depthwise/depthwise_bn_offset", "op": "Const", "attr": {"value": {"tensor": {"dtype": "DT_FLOAT", "tensorShape": {"dim": [{"size": "288"}]}}}, "dtype": {"type": "DT_FLOAT"}}}, {"name": "StatefulPartitionedCall/sequential_1/MobilenetV3small/Conv_1/Conv2D_weights", "op": "Const", "attr": {"value": {"tensor": {"dtype": "DT_FLOAT", "tensorShape": {"dim": [{"size": "1"}, {"size": "1"}, {"size": "96"}, {"size": "576"}]}}}, "dtype": {"type": "DT_FLOAT"}}}, {"name": "StatefulPartitionedCall/sequential_1/MobilenetV3small/expanded_conv_8/project/Conv2D_weights", "op": "Const", "attr": {"dtype": {"type": "DT_FLOAT"}, "value": {"tensor": {"dtype": "DT_FLOAT", "tensorShape": {"dim": [{"size": "1"}, {"size": "1"}, {"size": "288"}, {"size": "96"}]}}}}}, {"name": "StatefulPartitionedCall/sequential_1/MobilenetV3small/Conv_1/Conv2D_bn_offset", "op": "Const", "attr": {"value": {"tensor": {"dtype": "DT_FLOAT", "tensorShape": {"dim": [{"size": "576"}]}}}, "dtype": {"type": "DT_FLOAT"}}}, {"name": "StatefulPartitionedCall/sequential_1/MobilenetV3small/expanded_conv_8/project/Conv2D_bn_offset", "op": "Const", "attr": {"dtype": {"type": "DT_FLOAT"}, "value": {"tensor": {"dtype": "DT_FLOAT", "tensorShape": {"dim": [{"size": "96"}]}}}}}, {"name": "StatefulPartitionedCall/sequential_1/MobilenetV3small/expanded_conv_9/expand/Conv2D_weights", "op": "Const", "attr": {"value": {"tensor": {"dtype": "DT_FLOAT", "tensorShape": {"dim": [{"size": "1"}, {"size": "1"}, {"size": "96"}, {"size": "576"}]}}}, "dtype": {"type": "DT_FLOAT"}}}, {"name": "StatefulPartitionedCall/sequential_1/MobilenetV3small/expanded_conv_9/expand/Conv2D_bn_offset", "op": "Const", "attr": {"value": {"tensor": {"dtype": "DT_FLOAT", "tensorShape": {"dim": [{"size": "576"}]}}}, "dtype": {"type": "DT_FLOAT"}}}, {"name": "StatefulPartitionedCall/sequential_1/MobilenetV3small/expanded_conv_9/depthwise/depthwise_weights", "op": "Const", "attr": {"value": {"tensor": {"dtype": "DT_FLOAT", "tensorShape": {"dim": [{"size": "5"}, {"size": "5"}, {"size": "576"}, {"size": "1"}]}}}, "dtype": {"type": "DT_FLOAT"}}}, {"name": "StatefulPartitionedCall/sequential_1/MobilenetV3small/expanded_conv_9/depthwise/depthwise_bn_offset", "op": "Const", "attr": {"dtype": {"type": "DT_FLOAT"}, "value": {"tensor": {"dtype": "DT_FLOAT", "tensorShape": {"dim": [{"size": "576"}]}}}}}, {"name": "StatefulPartitionedCall/sequential_1/gray2rgb/concatenate_2/concat", "op": "ConcatV2", "input": ["gray2rgb_input", "gray2rgb_input", "gray2rgb_input", "StatefulPartitionedCall/sequential_1/gray2rgb/concatenate_2/concat/axis"], "attr": {"Tidx": {"type": "DT_INT32"}, "T": {"type": "DT_FLOAT"}, "N": {"i": "3"}}}, {"name": "StatefulPartitionedCall/sequential_1/augmentation/rescaling_5/mul", "op": "Mul", "input": ["StatefulPartitionedCall/sequential_1/gray2rgb/concatenate_2/concat", "StatefulPartitionedCall/sequential_1/augmentation/rescaling_5/Cast/x"], "attr": {"T": {"type": "DT_FLOAT"}}}, {"name": "StatefulPartitionedCall/sequential_1/augmentation/rescaling_5/add", "op": "AddV2", "input": ["StatefulPartitionedCall/sequential_1/augmentation/rescaling_5/mul", "StatefulPartitionedCall/sequential_1/augmentation/rescaling_5/Cast_1/x"], "attr": {"T": {"type": "DT_FLOAT"}}}, {"name": "StatefulPartitionedCall/sequential_1/augmentation/rescaling_6/mul", "op": "Mul", "input": ["StatefulPartitionedCall/sequential_1/augmentation/rescaling_5/add", "StatefulPartitionedCall/sequential_1/augmentation/rescaling_6/Cast"], "attr": {"T": {"type": "DT_FLOAT"}}}, {"name": "StatefulPartitionedCall/sequential_1/augmentation/rescaling_6/add", "op": "AddV2", "input": ["StatefulPartitionedCall/sequential_1/augmentation/rescaling_6/mul", "StatefulPartitionedCall/sequential_1/augmentation/rescaling_6/Cast_1/x"], "attr": {"T": {"type": "DT_FLOAT"}}}, {"name": "StatefulPartitionedCall/sequential_1/MobilenetV3small/rescaling_4/mul", "op": "Mul", "input": ["StatefulPartitionedCall/sequential_1/augmentation/rescaling_6/add", "StatefulPartitionedCall/sequential_1/MobilenetV3small/rescaling_4/Cast/x"], "attr": {"T": {"type": "DT_FLOAT"}}}, {"name": "StatefulPartitionedCall/sequential_1/MobilenetV3small/rescaling_4/add", "op": "AddV2", "input": ["StatefulPartitionedCall/sequential_1/MobilenetV3small/rescaling_4/mul", "StatefulPartitionedCall/sequential_1/MobilenetV3small/rescaling_4/Cast_1/x"], "attr": {"T": {"type": "DT_FLOAT"}}}, {"name": "StatefulPartitionedCall/sequential_1/MobilenetV3small/Conv/BatchNorm/FusedBatchNormV3", "op": "_FusedConv2D", "input": ["StatefulPartitionedCall/sequential_1/MobilenetV3small/rescaling_4/add", "StatefulPartitionedCall/sequential_1/MobilenetV3small/Conv/Conv2D_weights", "StatefulPartitionedCall/sequential_1/MobilenetV3small/Conv/Conv2D_bn_offset"], "device": "/device:CPU:0", "attr": {"fused_ops": {"list": {"s": ["Qmlhc0FkZA=="]}}, "T": {"type": "DT_FLOAT"}, "epsilon": {"f": 0.0}, "strides": {"list": {"i": ["1", "2", "2", "1"]}}, "data_format": {"s": "TkhXQw=="}, "num_args": {"i": "1"}, "padding": {"s": "U0FNRQ=="}, "use_cudnn_on_gpu": {"b": true}, "dilations": {"list": {"i": ["1", "1", "1", "1"]}}, "explicit_paddings": {"list": {}}}}, {"name": "StatefulPartitionedCall/sequential_1/MobilenetV3small/tf.math.multiply_27/Mul", "op": "Mul", "input": ["StatefulPartitionedCall/sequential_1/MobilenetV3small/tf.math.multiply_27/Mul/y", "StatefulPartitionedCall/sequential_1/MobilenetV3small/Conv/BatchNorm/FusedBatchNormV3"], "attr": {"_grappler_ArithmeticOptimizer_MinimizeBroadcasts": {"b": true}, "T": {"type": "DT_FLOAT"}}}, {"name": "StatefulPartitionedCall/sequential_1/MobilenetV3small/tf.__operators__.add_27/AddV2", "op": "AddV2", "input": ["StatefulPartitionedCall/sequential_1/MobilenetV3small/Conv/BatchNorm/FusedBatchNormV3", "StatefulPartitionedCall/sequential_1/MobilenetV3small/tf.__operators__.add_27/y"], "attr": {"T": {"type": "DT_FLOAT"}}}, {"name": "StatefulPartitionedCall/sequential_1/MobilenetV3small/re_lu_32/Relu6", "op": "Relu6", "input": ["StatefulPartitionedCall/sequential_1/MobilenetV3small/tf.__operators__.add_27/AddV2"], "attr": {"T": {"type": "DT_FLOAT"}}}, {"name": "StatefulPartitionedCall/sequential_1/MobilenetV3small/multiply_18/mul", "op": "Mul", "input": ["StatefulPartitionedCall/sequential_1/MobilenetV3small/tf.math.multiply_27/Mul", "StatefulPartitionedCall/sequential_1/MobilenetV3small/re_lu_32/Relu6"], "attr": {"_grappler_ArithmeticOptimizer_MinimizeBroadcasts": {"b": true}, "T": {"type": "DT_FLOAT"}}}, {"name": "StatefulPartitionedCall/sequential_1/MobilenetV3small/expanded_conv/depthwise/pad/Pad", "op": "Pad", "input": ["StatefulPartitionedCall/sequential_1/MobilenetV3small/multiply_18/mul", "StatefulPartitionedCall/sequential_1/MobilenetV3small/expanded_conv/depthwise/pad/Pad/paddings"], "attr": {"Tpaddings": {"type": "DT_INT32"}, "T": {"type": "DT_FLOAT"}}}, {"name": "StatefulPartitionedCall/sequential_1/MobilenetV3small/expanded_conv/depthwise/depthwise", "op": "FusedDepthwiseConv2dNative", "input": ["StatefulPartitionedCall/sequential_1/MobilenetV3small/expanded_conv/depthwise/pad/Pad", "StatefulPartitionedCall/sequential_1/MobilenetV3small/expanded_conv/depthwise/depthwise_weights", "StatefulPartitionedCall/sequential_1/MobilenetV3small/expanded_conv/depthwise/depthwise_bn_offset"], "attr": {"dilations": {"list": {"i": ["1", "1", "1", "1"]}}, "explicit_paddings": {"list": {}}, "num_args": {"i": "1"}, "data_format": {"s": "TkhXQw=="}, "T": {"type": "DT_FLOAT"}, "padding": {"s": "VkFMSUQ="}, "strides": {"list": {"i": ["1", "2", "2", "1"]}}, "fused_ops": {"list": {"s": ["Qmlhc0FkZA==", "UmVsdQ=="]}}}}, {"name": "StatefulPartitionedCall/sequential_1/MobilenetV3small/expanded_conv/squeeze_excite/AvgPool/Mean", "op": "Mean", "input": ["StatefulPartitionedCall/sequential_1/MobilenetV3small/expanded_conv/depthwise/depthwise", "StatefulPartitionedCall/sequential_1/MobilenetV3small/expanded_conv/squeeze_excite/AvgPool/Mean/reduction_indices"], "attr": {"T": {"type": "DT_FLOAT"}, "keep_dims": {"b": true}, "Tidx": {"type": "DT_INT32"}}}, {"name": "StatefulPartitionedCall/sequential_1/MobilenetV3small/expanded_conv/squeeze_excite/Relu/Relu", "op": "_FusedConv2D", "input": ["StatefulPartitionedCall/sequential_1/MobilenetV3small/expanded_conv/squeeze_excite/AvgPool/Mean", "StatefulPartitionedCall/sequential_1/MobilenetV3small/expanded_conv/squeeze_excite/Conv/Conv2D/ReadVariableOp", "StatefulPartitionedCall/sequential_1/MobilenetV3small/expanded_conv/squeeze_excite/Conv/BiasAdd/ReadVariableOp"], "device": "/device:CPU:0", "attr": {"num_args": {"i": "1"}, "explicit_paddings": {"list": {}}, "epsilon": {"f": 0.0}, "dilations": {"list": {"i": ["1", "1", "1", "1"]}}, "T": {"type": "DT_FLOAT"}, "fused_ops": {"list": {"s": ["Qmlhc0FkZA==", "UmVsdQ=="]}}, "padding": {"s": "U0FNRQ=="}, "strides": {"list": {"i": ["1", "1", "1", "1"]}}, "use_cudnn_on_gpu": {"b": true}, "data_format": {"s": "TkhXQw=="}}}, {"name": "StatefulPartitionedCall/sequential_1/MobilenetV3small/expanded_conv/squeeze_excite/Conv_1/BiasAdd", "op": "_FusedConv2D", "input": ["StatefulPartitionedCall/sequential_1/MobilenetV3small/expanded_conv/squeeze_excite/Relu/Relu", "StatefulPartitionedCall/sequential_1/MobilenetV3small/expanded_conv/squeeze_excite/Conv_1/Conv2D/ReadVariableOp", "StatefulPartitionedCall/sequential_1/MobilenetV3small/expanded_conv/squeeze_excite/Conv_1/BiasAdd/ReadVariableOp"], "device": "/device:CPU:0", "attr": {"use_cudnn_on_gpu": {"b": true}, "explicit_paddings": {"list": {}}, "num_args": {"i": "1"}, "epsilon": {"f": 0.0}, "dilations": {"list": {"i": ["1", "1", "1", "1"]}}, "padding": {"s": "U0FNRQ=="}, "fused_ops": {"list": {"s": ["Qmlhc0FkZA=="]}}, "data_format": {"s": "TkhXQw=="}, "T": {"type": "DT_FLOAT"}, "strides": {"list": {"i": ["1", "1", "1", "1"]}}}}, {"name": "StatefulPartitionedCall/sequential_1/MobilenetV3small/tf.__operators__.add_28/AddV2", "op": "AddV2", "input": ["StatefulPartitionedCall/sequential_1/MobilenetV3small/expanded_conv/squeeze_excite/Conv_1/BiasAdd", "StatefulPartitionedCall/sequential_1/MobilenetV3small/tf.__operators__.add_28/y"], "attr": {"T": {"type": "DT_FLOAT"}}}, {"name": "StatefulPartitionedCall/sequential_1/MobilenetV3small/re_lu_34/Relu6", "op": "Relu6", "input": ["StatefulPartitionedCall/sequential_1/MobilenetV3small/tf.__operators__.add_28/AddV2"], "attr": {"T": {"type": "DT_FLOAT"}}}, {"name": "StatefulPartitionedCall/sequential_1/MobilenetV3small/tf.math.multiply_28/Mul", "op": "Mul", "input": ["StatefulPartitionedCall/sequential_1/MobilenetV3small/tf.math.multiply_28/Mul/y", "StatefulPartitionedCall/sequential_1/MobilenetV3small/re_lu_34/Relu6"], "attr": {"_grappler_ArithmeticOptimizer_MinimizeBroadcasts": {"b": true}, "T": {"type": "DT_FLOAT"}}}, {"name": "StatefulPartitionedCall/sequential_1/MobilenetV3small/expanded_conv/squeeze_excite/Mul/mul", "op": "Mul", "input": ["StatefulPartitionedCall/sequential_1/MobilenetV3small/tf.math.multiply_28/Mul", "StatefulPartitionedCall/sequential_1/MobilenetV3small/expanded_conv/depthwise/depthwise"], "attr": {"_grappler_ArithmeticOptimizer_MinimizeBroadcasts": {"b": true}, "T": {"type": "DT_FLOAT"}}}, {"name": "StatefulPartitionedCall/sequential_1/MobilenetV3small/expanded_conv/project/BatchNorm/FusedBatchNormV3", "op": "_FusedConv2D", "input": ["StatefulPartitionedCall/sequential_1/MobilenetV3small/expanded_conv/squeeze_excite/Mul/mul", "StatefulPartitionedCall/sequential_1/MobilenetV3small/expanded_conv/project/Conv2D_weights", "StatefulPartitionedCall/sequential_1/MobilenetV3small/expanded_conv/project/Conv2D_bn_offset"], "device": "/device:CPU:0", "attr": {"T": {"type": "DT_FLOAT"}, "explicit_paddings": {"list": {}}, "fused_ops": {"list": {"s": ["Qmlhc0FkZA=="]}}, "num_args": {"i": "1"}, "data_format": {"s": "TkhXQw=="}, "padding": {"s": "U0FNRQ=="}, "epsilon": {"f": 0.0}, "strides": {"list": {"i": ["1", "1", "1", "1"]}}, "use_cudnn_on_gpu": {"b": true}, "dilations": {"list": {"i": ["1", "1", "1", "1"]}}}}, {"name": "StatefulPartitionedCall/sequential_1/MobilenetV3small/re_lu_35/Relu", "op": "_FusedConv2D", "input": ["StatefulPartitionedCall/sequential_1/MobilenetV3small/expanded_conv/project/BatchNorm/FusedBatchNormV3", "StatefulPartitionedCall/sequential_1/MobilenetV3small/expanded_conv_1/expand/Conv2D_weights", "StatefulPartitionedCall/sequential_1/MobilenetV3small/expanded_conv_1/expand/Conv2D_bn_offset"], "device": "/device:CPU:0", "attr": {"T": {"type": "DT_FLOAT"}, "explicit_paddings": {"list": {}}, "strides": {"list": {"i": ["1", "1", "1", "1"]}}, "use_cudnn_on_gpu": {"b": true}, "dilations": {"list": {"i": ["1", "1", "1", "1"]}}, "fused_ops": {"list": {"s": ["Qmlhc0FkZA==", "UmVsdQ=="]}}, "epsilon": {"f": 0.0}, "padding": {"s": "U0FNRQ=="}, "num_args": {"i": "1"}, "data_format": {"s": "TkhXQw=="}}}, {"name": "StatefulPartitionedCall/sequential_1/MobilenetV3small/expanded_conv_1/depthwise/pad/Pad", "op": "Pad", "input": ["StatefulPartitionedCall/sequential_1/MobilenetV3small/re_lu_35/Relu", "StatefulPartitionedCall/sequential_1/MobilenetV3small/expanded_conv_1/depthwise/pad/Pad/paddings"], "attr": {"T": {"type": "DT_FLOAT"}, "Tpaddings": {"type": "DT_INT32"}}}, {"name": "StatefulPartitionedCall/sequential_1/MobilenetV3small/expanded_conv_1/depthwise/depthwise", "op": "FusedDepthwiseConv2dNative", "input": ["StatefulPartitionedCall/sequential_1/MobilenetV3small/expanded_conv_1/depthwise/pad/Pad", "StatefulPartitionedCall/sequential_1/MobilenetV3small/expanded_conv_1/depthwise/depthwise_weights", "StatefulPartitionedCall/sequential_1/MobilenetV3small/expanded_conv_1/depthwise/depthwise_bn_offset"], "attr": {"explicit_paddings": {"list": {}}, "padding": {"s": "VkFMSUQ="}, "strides": {"list": {"i": ["1", "2", "2", "1"]}}, "fused_ops": {"list": {"s": ["Qmlhc0FkZA==", "UmVsdQ=="]}}, "T": {"type": "DT_FLOAT"}, "num_args": {"i": "1"}, "dilations": {"list": {"i": ["1", "1", "1", "1"]}}, "data_format": {"s": "TkhXQw=="}}}, {"name": "StatefulPartitionedCall/sequential_1/MobilenetV3small/expanded_conv_1/project/BatchNorm/FusedBatchNormV3", "op": "_FusedConv2D", "input": ["StatefulPartitionedCall/sequential_1/MobilenetV3small/expanded_conv_1/depthwise/depthwise", "StatefulPartitionedCall/sequential_1/MobilenetV3small/expanded_conv_1/project/Conv2D_weights", "StatefulPartitionedCall/sequential_1/MobilenetV3small/expanded_conv_1/project/Conv2D_bn_offset"], "device": "/device:CPU:0", "attr": {"epsilon": {"f": 0.0}, "strides": {"list": {"i": ["1", "1", "1", "1"]}}, "dilations": {"list": {"i": ["1", "1", "1", "1"]}}, "fused_ops": {"list": {"s": ["Qmlhc0FkZA=="]}}, "data_format": {"s": "TkhXQw=="}, "num_args": {"i": "1"}, "use_cudnn_on_gpu": {"b": true}, "explicit_paddings": {"list": {}}, "padding": {"s": "U0FNRQ=="}, "T": {"type": "DT_FLOAT"}}}, {"name": "StatefulPartitionedCall/sequential_1/MobilenetV3small/re_lu_37/Relu", "op": "_FusedConv2D", "input": ["StatefulPartitionedCall/sequential_1/MobilenetV3small/expanded_conv_1/project/BatchNorm/FusedBatchNormV3", "StatefulPartitionedCall/sequential_1/MobilenetV3small/expanded_conv_2/expand/Conv2D_weights", "StatefulPartitionedCall/sequential_1/MobilenetV3small/expanded_conv_2/expand/Conv2D_bn_offset"], "device": "/device:CPU:0", "attr": {"T": {"type": "DT_FLOAT"}, "padding": {"s": "U0FNRQ=="}, "epsilon": {"f": 0.0}, "dilations": {"list": {"i": ["1", "1", "1", "1"]}}, "num_args": {"i": "1"}, "fused_ops": {"list": {"s": ["Qmlhc0FkZA==", "UmVsdQ=="]}}, "explicit_paddings": {"list": {}}, "data_format": {"s": "TkhXQw=="}, "strides": {"list": {"i": ["1", "1", "1", "1"]}}, "use_cudnn_on_gpu": {"b": true}}}, {"name": "StatefulPartitionedCall/sequential_1/MobilenetV3small/expanded_conv_2/depthwise/depthwise", "op": "FusedDepthwiseConv2dNative", "input": ["StatefulPartitionedCall/sequential_1/MobilenetV3small/re_lu_37/Relu", "StatefulPartitionedCall/sequential_1/MobilenetV3small/expanded_conv_2/depthwise/depthwise_weights", "StatefulPartitionedCall/sequential_1/MobilenetV3small/expanded_conv_2/depthwise/depthwise_bn_offset"], "attr": {"num_args": {"i": "1"}, "data_format": {"s": "TkhXQw=="}, "fused_ops": {"list": {"s": ["Qmlhc0FkZA==", "UmVsdQ=="]}}, "padding": {"s": "U0FNRQ=="}, "explicit_paddings": {"list": {}}, "dilations": {"list": {"i": ["1", "1", "1", "1"]}}, "T": {"type": "DT_FLOAT"}, "strides": {"list": {"i": ["1", "1", "1", "1"]}}}}, {"name": "StatefulPartitionedCall/sequential_1/MobilenetV3small/expanded_conv_2/project/BatchNorm/FusedBatchNormV3", "op": "_FusedConv2D", "input": ["StatefulPartitionedCall/sequential_1/MobilenetV3small/expanded_conv_2/depthwise/depthwise", "StatefulPartitionedCall/sequential_1/MobilenetV3small/expanded_conv_2/project/Conv2D_weights", "StatefulPartitionedCall/sequential_1/MobilenetV3small/expanded_conv_2/project/Conv2D_bn_offset"], "device": "/device:CPU:0", "attr": {"strides": {"list": {"i": ["1", "1", "1", "1"]}}, "T": {"type": "DT_FLOAT"}, "epsilon": {"f": 0.0}, "use_cudnn_on_gpu": {"b": true}, "fused_ops": {"list": {"s": ["Qmlhc0FkZA=="]}}, "data_format": {"s": "TkhXQw=="}, "num_args": {"i": "1"}, "explicit_paddings": {"list": {}}, "padding": {"s": "U0FNRQ=="}, "dilations": {"list": {"i": ["1", "1", "1", "1"]}}}}, {"name": "StatefulPartitionedCall/sequential_1/MobilenetV3small/expanded_conv_2/Add/add", "op": "AddV2", "input": ["StatefulPartitionedCall/sequential_1/MobilenetV3small/expanded_conv_1/project/BatchNorm/FusedBatchNormV3", "StatefulPartitionedCall/sequential_1/MobilenetV3small/expanded_conv_2/project/BatchNorm/FusedBatchNormV3"], "attr": {"T": {"type": "DT_FLOAT"}}}, {"name": "StatefulPartitionedCall/sequential_1/MobilenetV3small/expanded_conv_3/expand/BatchNorm/FusedBatchNormV3", "op": "_FusedConv2D", "input": ["StatefulPartitionedCall/sequential_1/MobilenetV3small/expanded_conv_2/Add/add", "StatefulPartitionedCall/sequential_1/MobilenetV3small/expanded_conv_3/expand/Conv2D_weights", "StatefulPartitionedCall/sequential_1/MobilenetV3small/expanded_conv_3/expand/Conv2D_bn_offset"], "device": "/device:CPU:0", "attr": {"strides": {"list": {"i": ["1", "1", "1", "1"]}}, "epsilon": {"f": 0.0}, "dilations": {"list": {"i": ["1", "1", "1", "1"]}}, "explicit_paddings": {"list": {}}, "use_cudnn_on_gpu": {"b": true}, "num_args": {"i": "1"}, "padding": {"s": "U0FNRQ=="}, "fused_ops": {"list": {"s": ["Qmlhc0FkZA=="]}}, "data_format": {"s": "TkhXQw=="}, "T": {"type": "DT_FLOAT"}}}, {"name": "StatefulPartitionedCall/sequential_1/MobilenetV3small/tf.math.multiply_29/Mul", "op": "Mul", "input": ["StatefulPartitionedCall/sequential_1/MobilenetV3small/tf.math.multiply_29/Mul/y", "StatefulPartitionedCall/sequential_1/MobilenetV3small/expanded_conv_3/expand/BatchNorm/FusedBatchNormV3"], "attr": {"_grappler_ArithmeticOptimizer_MinimizeBroadcasts": {"b": true}, "T": {"type": "DT_FLOAT"}}}, {"name": "StatefulPartitionedCall/sequential_1/MobilenetV3small/tf.__operators__.add_29/AddV2", "op": "AddV2", "input": ["StatefulPartitionedCall/sequential_1/MobilenetV3small/expanded_conv_3/expand/BatchNorm/FusedBatchNormV3", "StatefulPartitionedCall/sequential_1/MobilenetV3small/tf.__operators__.add_29/y"], "attr": {"T": {"type": "DT_FLOAT"}}}, {"name": "StatefulPartitionedCall/sequential_1/MobilenetV3small/re_lu_39/Relu6", "op": "Relu6", "input": ["StatefulPartitionedCall/sequential_1/MobilenetV3small/tf.__operators__.add_29/AddV2"], "attr": {"T": {"type": "DT_FLOAT"}}}, {"name": "StatefulPartitionedCall/sequential_1/MobilenetV3small/multiply_19/mul", "op": "Mul", "input": ["StatefulPartitionedCall/sequential_1/MobilenetV3small/tf.math.multiply_29/Mul", "StatefulPartitionedCall/sequential_1/MobilenetV3small/re_lu_39/Relu6"], "attr": {"T": {"type": "DT_FLOAT"}, "_grappler_ArithmeticOptimizer_MinimizeBroadcasts": {"b": true}}}, {"name": "StatefulPartitionedCall/sequential_1/MobilenetV3small/expanded_conv_3/depthwise/pad/Pad", "op": "Pad", "input": ["StatefulPartitionedCall/sequential_1/MobilenetV3small/multiply_19/mul", "StatefulPartitionedCall/sequential_1/MobilenetV3small/expanded_conv_3/depthwise/pad/Pad/paddings"], "attr": {"Tpaddings": {"type": "DT_INT32"}, "T": {"type": "DT_FLOAT"}}}, {"name": "StatefulPartitionedCall/sequential_1/MobilenetV3small/expanded_conv_3/depthwise/depthwise", "op": "FusedDepthwiseConv2dNative", "input": ["StatefulPartitionedCall/sequential_1/MobilenetV3small/expanded_conv_3/depthwise/pad/Pad", "StatefulPartitionedCall/sequential_1/MobilenetV3small/expanded_conv_3/depthwise/depthwise_weights", "StatefulPartitionedCall/sequential_1/MobilenetV3small/expanded_conv_3/depthwise/depthwise_bn_offset"], "attr": {"T": {"type": "DT_FLOAT"}, "num_args": {"i": "1"}, "padding": {"s": "VkFMSUQ="}, "strides": {"list": {"i": ["1", "2", "2", "1"]}}, "fused_ops": {"list": {"s": ["Qmlhc0FkZA=="]}}, "dilations": {"list": {"i": ["1", "1", "1", "1"]}}, "explicit_paddings": {"list": {}}, "data_format": {"s": "TkhXQw=="}}}, {"name": "StatefulPartitionedCall/sequential_1/MobilenetV3small/tf.math.multiply_30/Mul", "op": "Mul", "input": ["StatefulPartitionedCall/sequential_1/MobilenetV3small/tf.math.multiply_30/Mul/y", "StatefulPartitionedCall/sequential_1/MobilenetV3small/expanded_conv_3/depthwise/depthwise"], "attr": {"_grappler_ArithmeticOptimizer_MinimizeBroadcasts": {"b": true}, "T": {"type": "DT_FLOAT"}}}, {"name": "StatefulPartitionedCall/sequential_1/MobilenetV3small/tf.__operators__.add_30/AddV2", "op": "AddV2", "input": ["StatefulPartitionedCall/sequential_1/MobilenetV3small/expanded_conv_3/depthwise/depthwise", "StatefulPartitionedCall/sequential_1/MobilenetV3small/tf.__operators__.add_30/y"], "attr": {"T": {"type": "DT_FLOAT"}}}, {"name": "StatefulPartitionedCall/sequential_1/MobilenetV3small/re_lu_40/Relu6", "op": "Relu6", "input": ["StatefulPartitionedCall/sequential_1/MobilenetV3small/tf.__operators__.add_30/AddV2"], "attr": {"T": {"type": "DT_FLOAT"}}}, {"name": "StatefulPartitionedCall/sequential_1/MobilenetV3small/multiply_20/mul", "op": "Mul", "input": ["StatefulPartitionedCall/sequential_1/MobilenetV3small/tf.math.multiply_30/Mul", "StatefulPartitionedCall/sequential_1/MobilenetV3small/re_lu_40/Relu6"], "attr": {"T": {"type": "DT_FLOAT"}, "_grappler_ArithmeticOptimizer_MinimizeBroadcasts": {"b": true}}}, {"name": "StatefulPartitionedCall/sequential_1/MobilenetV3small/expanded_conv_3/squeeze_excite/AvgPool/Mean", "op": "Mean", "input": ["StatefulPartitionedCall/sequential_1/MobilenetV3small/multiply_20/mul", "StatefulPartitionedCall/sequential_1/MobilenetV3small/expanded_conv_3/squeeze_excite/AvgPool/Mean/reduction_indices"], "attr": {"keep_dims": {"b": true}, "T": {"type": "DT_FLOAT"}, "Tidx": {"type": "DT_INT32"}}}, {"name": "StatefulPartitionedCall/sequential_1/MobilenetV3small/expanded_conv_3/squeeze_excite/Relu/Relu", "op": "_FusedConv2D", "input": ["StatefulPartitionedCall/sequential_1/MobilenetV3small/expanded_conv_3/squeeze_excite/AvgPool/Mean", "StatefulPartitionedCall/sequential_1/MobilenetV3small/expanded_conv_3/squeeze_excite/Conv/Conv2D/ReadVariableOp", "StatefulPartitionedCall/sequential_1/MobilenetV3small/expanded_conv_3/squeeze_excite/Conv/BiasAdd/ReadVariableOp"], "device": "/device:CPU:0", "attr": {"padding": {"s": "U0FNRQ=="}, "use_cudnn_on_gpu": {"b": true}, "strides": {"list": {"i": ["1", "1", "1", "1"]}}, "T": {"type": "DT_FLOAT"}, "epsilon": {"f": 0.0}, "explicit_paddings": {"list": {}}, "num_args": {"i": "1"}, "data_format": {"s": "TkhXQw=="}, "fused_ops": {"list": {"s": ["Qmlhc0FkZA==", "UmVsdQ=="]}}, "dilations": {"list": {"i": ["1", "1", "1", "1"]}}}}, {"name": "StatefulPartitionedCall/sequential_1/MobilenetV3small/expanded_conv_3/squeeze_excite/Conv_1/BiasAdd", "op": "_FusedConv2D", "input": ["StatefulPartitionedCall/sequential_1/MobilenetV3small/expanded_conv_3/squeeze_excite/Relu/Relu", "StatefulPartitionedCall/sequential_1/MobilenetV3small/expanded_conv_3/squeeze_excite/Conv_1/Conv2D/ReadVariableOp", "StatefulPartitionedCall/sequential_1/MobilenetV3small/expanded_conv_3/squeeze_excite/Conv_1/BiasAdd/ReadVariableOp"], "device": "/device:CPU:0", "attr": {"padding": {"s": "U0FNRQ=="}, "num_args": {"i": "1"}, "use_cudnn_on_gpu": {"b": true}, "strides": {"list": {"i": ["1", "1", "1", "1"]}}, "data_format": {"s": "TkhXQw=="}, "explicit_paddings": {"list": {}}, "dilations": {"list": {"i": ["1", "1", "1", "1"]}}, "fused_ops": {"list": {"s": ["Qmlhc0FkZA=="]}}, "epsilon": {"f": 0.0}, "T": {"type": "DT_FLOAT"}}}, {"name": "StatefulPartitionedCall/sequential_1/MobilenetV3small/tf.__operators__.add_31/AddV2", "op": "AddV2", "input": ["StatefulPartitionedCall/sequential_1/MobilenetV3small/expanded_conv_3/squeeze_excite/Conv_1/BiasAdd", "StatefulPartitionedCall/sequential_1/MobilenetV3small/tf.__operators__.add_31/y"], "attr": {"T": {"type": "DT_FLOAT"}}}, {"name": "StatefulPartitionedCall/sequential_1/MobilenetV3small/re_lu_41/Relu6", "op": "Relu6", "input": ["StatefulPartitionedCall/sequential_1/MobilenetV3small/tf.__operators__.add_31/AddV2"], "attr": {"T": {"type": "DT_FLOAT"}}}, {"name": "StatefulPartitionedCall/sequential_1/MobilenetV3small/tf.math.multiply_31/Mul", "op": "Mul", "input": ["StatefulPartitionedCall/sequential_1/MobilenetV3small/tf.math.multiply_31/Mul/y", "StatefulPartitionedCall/sequential_1/MobilenetV3small/re_lu_41/Relu6"], "attr": {"T": {"type": "DT_FLOAT"}, "_grappler_ArithmeticOptimizer_MinimizeBroadcasts": {"b": true}}}, {"name": "StatefulPartitionedCall/sequential_1/MobilenetV3small/expanded_conv_3/squeeze_excite/Mul/mul", "op": "Mul", "input": ["StatefulPartitionedCall/sequential_1/MobilenetV3small/tf.math.multiply_31/Mul", "StatefulPartitionedCall/sequential_1/MobilenetV3small/multiply_20/mul"], "attr": {"_grappler_ArithmeticOptimizer_MinimizeBroadcasts": {"b": true}, "T": {"type": "DT_FLOAT"}}}, {"name": "StatefulPartitionedCall/sequential_1/MobilenetV3small/expanded_conv_3/project/BatchNorm/FusedBatchNormV3", "op": "_FusedConv2D", "input": ["StatefulPartitionedCall/sequential_1/MobilenetV3small/expanded_conv_3/squeeze_excite/Mul/mul", "StatefulPartitionedCall/sequential_1/MobilenetV3small/expanded_conv_3/project/Conv2D_weights", "StatefulPartitionedCall/sequential_1/MobilenetV3small/expanded_conv_3/project/Conv2D_bn_offset"], "device": "/device:CPU:0", "attr": {"explicit_paddings": {"list": {}}, "dilations": {"list": {"i": ["1", "1", "1", "1"]}}, "epsilon": {"f": 0.0}, "num_args": {"i": "1"}, "strides": {"list": {"i": ["1", "1", "1", "1"]}}, "fused_ops": {"list": {"s": ["Qmlhc0FkZA=="]}}, "use_cudnn_on_gpu": {"b": true}, "data_format": {"s": "TkhXQw=="}, "T": {"type": "DT_FLOAT"}, "padding": {"s": "U0FNRQ=="}}}, {"name": "StatefulPartitionedCall/sequential_1/MobilenetV3small/expanded_conv_4/expand/BatchNorm/FusedBatchNormV3", "op": "_FusedConv2D", "input": ["StatefulPartitionedCall/sequential_1/MobilenetV3small/expanded_conv_3/project/BatchNorm/FusedBatchNormV3", "StatefulPartitionedCall/sequential_1/MobilenetV3small/expanded_conv_4/expand/Conv2D_weights", "StatefulPartitionedCall/sequential_1/MobilenetV3small/expanded_conv_4/expand/Conv2D_bn_offset"], "device": "/device:CPU:0", "attr": {"strides": {"list": {"i": ["1", "1", "1", "1"]}}, "padding": {"s": "U0FNRQ=="}, "num_args": {"i": "1"}, "epsilon": {"f": 0.0}, "dilations": {"list": {"i": ["1", "1", "1", "1"]}}, "T": {"type": "DT_FLOAT"}, "data_format": {"s": "TkhXQw=="}, "explicit_paddings": {"list": {}}, "fused_ops": {"list": {"s": ["Qmlhc0FkZA=="]}}, "use_cudnn_on_gpu": {"b": true}}}, {"name": "StatefulPartitionedCall/sequential_1/MobilenetV3small/tf.math.multiply_32/Mul", "op": "Mul", "input": ["StatefulPartitionedCall/sequential_1/MobilenetV3small/tf.math.multiply_32/Mul/y", "StatefulPartitionedCall/sequential_1/MobilenetV3small/expanded_conv_4/expand/BatchNorm/FusedBatchNormV3"], "attr": {"T": {"type": "DT_FLOAT"}, "_grappler_ArithmeticOptimizer_MinimizeBroadcasts": {"b": true}}}, {"name": "StatefulPartitionedCall/sequential_1/MobilenetV3small/tf.__operators__.add_32/AddV2", "op": "AddV2", "input": ["StatefulPartitionedCall/sequential_1/MobilenetV3small/expanded_conv_4/expand/BatchNorm/FusedBatchNormV3", "StatefulPartitionedCall/sequential_1/MobilenetV3small/tf.__operators__.add_32/y"], "attr": {"T": {"type": "DT_FLOAT"}}}, {"name": "StatefulPartitionedCall/sequential_1/MobilenetV3small/re_lu_42/Relu6", "op": "Relu6", "input": ["StatefulPartitionedCall/sequential_1/MobilenetV3small/tf.__operators__.add_32/AddV2"], "attr": {"T": {"type": "DT_FLOAT"}}}, {"name": "StatefulPartitionedCall/sequential_1/MobilenetV3small/multiply_21/mul", "op": "Mul", "input": ["StatefulPartitionedCall/sequential_1/MobilenetV3small/tf.math.multiply_32/Mul", "StatefulPartitionedCall/sequential_1/MobilenetV3small/re_lu_42/Relu6"], "attr": {"_grappler_ArithmeticOptimizer_MinimizeBroadcasts": {"b": true}, "T": {"type": "DT_FLOAT"}}}, {"name": "StatefulPartitionedCall/sequential_1/MobilenetV3small/expanded_conv_4/depthwise/depthwise", "op": "FusedDepthwiseConv2dNative", "input": ["StatefulPartitionedCall/sequential_1/MobilenetV3small/multiply_21/mul", "StatefulPartitionedCall/sequential_1/MobilenetV3small/expanded_conv_4/depthwise/depthwise_weights", "StatefulPartitionedCall/sequential_1/MobilenetV3small/expanded_conv_4/depthwise/depthwise_bn_offset"], "attr": {"explicit_paddings": {"list": {}}, "T": {"type": "DT_FLOAT"}, "padding": {"s": "U0FNRQ=="}, "fused_ops": {"list": {"s": ["Qmlhc0FkZA=="]}}, "data_format": {"s": "TkhXQw=="}, "strides": {"list": {"i": ["1", "1", "1", "1"]}}, "num_args": {"i": "1"}, "dilations": {"list": {"i": ["1", "1", "1", "1"]}}}}, {"name": "StatefulPartitionedCall/sequential_1/MobilenetV3small/tf.math.multiply_33/Mul", "op": "Mul", "input": ["StatefulPartitionedCall/sequential_1/MobilenetV3small/tf.math.multiply_33/Mul/y", "StatefulPartitionedCall/sequential_1/MobilenetV3small/expanded_conv_4/depthwise/depthwise"], "attr": {"T": {"type": "DT_FLOAT"}, "_grappler_ArithmeticOptimizer_MinimizeBroadcasts": {"b": true}}}, {"name": "StatefulPartitionedCall/sequential_1/MobilenetV3small/tf.__operators__.add_33/AddV2", "op": "AddV2", "input": ["StatefulPartitionedCall/sequential_1/MobilenetV3small/expanded_conv_4/depthwise/depthwise", "StatefulPartitionedCall/sequential_1/MobilenetV3small/tf.__operators__.add_33/y"], "attr": {"T": {"type": "DT_FLOAT"}}}, {"name": "StatefulPartitionedCall/sequential_1/MobilenetV3small/re_lu_43/Relu6", "op": "Relu6", "input": ["StatefulPartitionedCall/sequential_1/MobilenetV3small/tf.__operators__.add_33/AddV2"], "attr": {"T": {"type": "DT_FLOAT"}}}, {"name": "StatefulPartitionedCall/sequential_1/MobilenetV3small/multiply_22/mul", "op": "Mul", "input": ["StatefulPartitionedCall/sequential_1/MobilenetV3small/tf.math.multiply_33/Mul", "StatefulPartitionedCall/sequential_1/MobilenetV3small/re_lu_43/Relu6"], "attr": {"T": {"type": "DT_FLOAT"}, "_grappler_ArithmeticOptimizer_MinimizeBroadcasts": {"b": true}}}, {"name": "StatefulPartitionedCall/sequential_1/MobilenetV3small/expanded_conv_4/squeeze_excite/AvgPool/Mean", "op": "Mean", "input": ["StatefulPartitionedCall/sequential_1/MobilenetV3small/multiply_22/mul", "StatefulPartitionedCall/sequential_1/MobilenetV3small/expanded_conv_4/squeeze_excite/AvgPool/Mean/reduction_indices"], "attr": {"T": {"type": "DT_FLOAT"}, "keep_dims": {"b": true}, "Tidx": {"type": "DT_INT32"}}}, {"name": "StatefulPartitionedCall/sequential_1/MobilenetV3small/expanded_conv_4/squeeze_excite/Relu/Relu", "op": "_FusedConv2D", "input": ["StatefulPartitionedCall/sequential_1/MobilenetV3small/expanded_conv_4/squeeze_excite/AvgPool/Mean", "StatefulPartitionedCall/sequential_1/MobilenetV3small/expanded_conv_4/squeeze_excite/Conv/Conv2D/ReadVariableOp", "StatefulPartitionedCall/sequential_1/MobilenetV3small/expanded_conv_4/squeeze_excite/Conv/BiasAdd/ReadVariableOp"], "device": "/device:CPU:0", "attr": {"data_format": {"s": "TkhXQw=="}, "explicit_paddings": {"list": {}}, "strides": {"list": {"i": ["1", "1", "1", "1"]}}, "use_cudnn_on_gpu": {"b": true}, "padding": {"s": "U0FNRQ=="}, "epsilon": {"f": 0.0}, "dilations": {"list": {"i": ["1", "1", "1", "1"]}}, "T": {"type": "DT_FLOAT"}, "fused_ops": {"list": {"s": ["Qmlhc0FkZA==", "UmVsdQ=="]}}, "num_args": {"i": "1"}}}, {"name": "StatefulPartitionedCall/sequential_1/MobilenetV3small/expanded_conv_4/squeeze_excite/Conv_1/BiasAdd", "op": "_FusedConv2D", "input": ["StatefulPartitionedCall/sequential_1/MobilenetV3small/expanded_conv_4/squeeze_excite/Relu/Relu", "StatefulPartitionedCall/sequential_1/MobilenetV3small/expanded_conv_4/squeeze_excite/Conv_1/Conv2D/ReadVariableOp", "StatefulPartitionedCall/sequential_1/MobilenetV3small/expanded_conv_4/squeeze_excite/Conv_1/BiasAdd/ReadVariableOp"], "device": "/device:CPU:0", "attr": {"dilations": {"list": {"i": ["1", "1", "1", "1"]}}, "epsilon": {"f": 0.0}, "num_args": {"i": "1"}, "fused_ops": {"list": {"s": ["Qmlhc0FkZA=="]}}, "data_format": {"s": "TkhXQw=="}, "padding": {"s": "U0FNRQ=="}, "strides": {"list": {"i": ["1", "1", "1", "1"]}}, "use_cudnn_on_gpu": {"b": true}, "T": {"type": "DT_FLOAT"}, "explicit_paddings": {"list": {}}}}, {"name": "StatefulPartitionedCall/sequential_1/MobilenetV3small/tf.__operators__.add_34/AddV2", "op": "AddV2", "input": ["StatefulPartitionedCall/sequential_1/MobilenetV3small/expanded_conv_4/squeeze_excite/Conv_1/BiasAdd", "StatefulPartitionedCall/sequential_1/MobilenetV3small/tf.__operators__.add_34/y"], "attr": {"T": {"type": "DT_FLOAT"}}}, {"name": "StatefulPartitionedCall/sequential_1/MobilenetV3small/re_lu_44/Relu6", "op": "Relu6", "input": ["StatefulPartitionedCall/sequential_1/MobilenetV3small/tf.__operators__.add_34/AddV2"], "attr": {"T": {"type": "DT_FLOAT"}}}, {"name": "StatefulPartitionedCall/sequential_1/MobilenetV3small/tf.math.multiply_34/Mul", "op": "Mul", "input": ["StatefulPartitionedCall/sequential_1/MobilenetV3small/tf.math.multiply_34/Mul/y", "StatefulPartitionedCall/sequential_1/MobilenetV3small/re_lu_44/Relu6"], "attr": {"T": {"type": "DT_FLOAT"}, "_grappler_ArithmeticOptimizer_MinimizeBroadcasts": {"b": true}}}, {"name": "StatefulPartitionedCall/sequential_1/MobilenetV3small/expanded_conv_4/squeeze_excite/Mul/mul", "op": "Mul", "input": ["StatefulPartitionedCall/sequential_1/MobilenetV3small/tf.math.multiply_34/Mul", "StatefulPartitionedCall/sequential_1/MobilenetV3small/multiply_22/mul"], "attr": {"_grappler_ArithmeticOptimizer_MinimizeBroadcasts": {"b": true}, "T": {"type": "DT_FLOAT"}}}, {"name": "StatefulPartitionedCall/sequential_1/MobilenetV3small/expanded_conv_4/project/BatchNorm/FusedBatchNormV3", "op": "_FusedConv2D", "input": ["StatefulPartitionedCall/sequential_1/MobilenetV3small/expanded_conv_4/squeeze_excite/Mul/mul", "StatefulPartitionedCall/sequential_1/MobilenetV3small/expanded_conv_4/project/Conv2D_weights", "StatefulPartitionedCall/sequential_1/MobilenetV3small/expanded_conv_4/project/Conv2D_bn_offset"], "device": "/device:CPU:0", "attr": {"num_args": {"i": "1"}, "T": {"type": "DT_FLOAT"}, "dilations": {"list": {"i": ["1", "1", "1", "1"]}}, "epsilon": {"f": 0.0}, "use_cudnn_on_gpu": {"b": true}, "data_format": {"s": "TkhXQw=="}, "padding": {"s": "U0FNRQ=="}, "fused_ops": {"list": {"s": ["Qmlhc0FkZA=="]}}, "strides": {"list": {"i": ["1", "1", "1", "1"]}}, "explicit_paddings": {"list": {}}}}, {"name": "StatefulPartitionedCall/sequential_1/MobilenetV3small/expanded_conv_4/Add/add", "op": "AddV2", "input": ["StatefulPartitionedCall/sequential_1/MobilenetV3small/expanded_conv_3/project/BatchNorm/FusedBatchNormV3", "StatefulPartitionedCall/sequential_1/MobilenetV3small/expanded_conv_4/project/BatchNorm/FusedBatchNormV3"], "attr": {"T": {"type": "DT_FLOAT"}}}, {"name": "StatefulPartitionedCall/sequential_1/MobilenetV3small/expanded_conv_5/expand/BatchNorm/FusedBatchNormV3", "op": "_FusedConv2D", "input": ["StatefulPartitionedCall/sequential_1/MobilenetV3small/expanded_conv_4/Add/add", "StatefulPartitionedCall/sequential_1/MobilenetV3small/expanded_conv_5/expand/Conv2D_weights", "StatefulPartitionedCall/sequential_1/MobilenetV3small/expanded_conv_5/expand/Conv2D_bn_offset"], "device": "/device:CPU:0", "attr": {"num_args": {"i": "1"}, "data_format": {"s": "TkhXQw=="}, "epsilon": {"f": 0.0}, "T": {"type": "DT_FLOAT"}, "dilations": {"list": {"i": ["1", "1", "1", "1"]}}, "padding": {"s": "U0FNRQ=="}, "explicit_paddings": {"list": {}}, "fused_ops": {"list": {"s": ["Qmlhc0FkZA=="]}}, "strides": {"list": {"i": ["1", "1", "1", "1"]}}, "use_cudnn_on_gpu": {"b": true}}}, {"name": "StatefulPartitionedCall/sequential_1/MobilenetV3small/tf.math.multiply_35/Mul", "op": "Mul", "input": ["StatefulPartitionedCall/sequential_1/MobilenetV3small/tf.math.multiply_35/Mul/y", "StatefulPartitionedCall/sequential_1/MobilenetV3small/expanded_conv_5/expand/BatchNorm/FusedBatchNormV3"], "attr": {"T": {"type": "DT_FLOAT"}, "_grappler_ArithmeticOptimizer_MinimizeBroadcasts": {"b": true}}}, {"name": "StatefulPartitionedCall/sequential_1/MobilenetV3small/tf.__operators__.add_35/AddV2", "op": "AddV2", "input": ["StatefulPartitionedCall/sequential_1/MobilenetV3small/expanded_conv_5/expand/BatchNorm/FusedBatchNormV3", "StatefulPartitionedCall/sequential_1/MobilenetV3small/tf.__operators__.add_35/y"], "attr": {"T": {"type": "DT_FLOAT"}}}, {"name": "StatefulPartitionedCall/sequential_1/MobilenetV3small/re_lu_45/Relu6", "op": "Relu6", "input": ["StatefulPartitionedCall/sequential_1/MobilenetV3small/tf.__operators__.add_35/AddV2"], "attr": {"T": {"type": "DT_FLOAT"}}}, {"name": "StatefulPartitionedCall/sequential_1/MobilenetV3small/multiply_23/mul", "op": "Mul", "input": ["StatefulPartitionedCall/sequential_1/MobilenetV3small/tf.math.multiply_35/Mul", "StatefulPartitionedCall/sequential_1/MobilenetV3small/re_lu_45/Relu6"], "attr": {"_grappler_ArithmeticOptimizer_MinimizeBroadcasts": {"b": true}, "T": {"type": "DT_FLOAT"}}}, {"name": "StatefulPartitionedCall/sequential_1/MobilenetV3small/expanded_conv_5/depthwise/depthwise", "op": "FusedDepthwiseConv2dNative", "input": ["StatefulPartitionedCall/sequential_1/MobilenetV3small/multiply_23/mul", "StatefulPartitionedCall/sequential_1/MobilenetV3small/expanded_conv_5/depthwise/depthwise_weights", "StatefulPartitionedCall/sequential_1/MobilenetV3small/expanded_conv_5/depthwise/depthwise_bn_offset"], "attr": {"padding": {"s": "U0FNRQ=="}, "data_format": {"s": "TkhXQw=="}, "T": {"type": "DT_FLOAT"}, "fused_ops": {"list": {"s": ["Qmlhc0FkZA=="]}}, "dilations": {"list": {"i": ["1", "1", "1", "1"]}}, "strides": {"list": {"i": ["1", "1", "1", "1"]}}, "num_args": {"i": "1"}, "explicit_paddings": {"list": {}}}}, {"name": "StatefulPartitionedCall/sequential_1/MobilenetV3small/tf.math.multiply_36/Mul", "op": "Mul", "input": ["StatefulPartitionedCall/sequential_1/MobilenetV3small/tf.math.multiply_36/Mul/y", "StatefulPartitionedCall/sequential_1/MobilenetV3small/expanded_conv_5/depthwise/depthwise"], "attr": {"T": {"type": "DT_FLOAT"}, "_grappler_ArithmeticOptimizer_MinimizeBroadcasts": {"b": true}}}, {"name": "StatefulPartitionedCall/sequential_1/MobilenetV3small/tf.__operators__.add_36/AddV2", "op": "AddV2", "input": ["StatefulPartitionedCall/sequential_1/MobilenetV3small/expanded_conv_5/depthwise/depthwise", "StatefulPartitionedCall/sequential_1/MobilenetV3small/tf.__operators__.add_36/y"], "attr": {"T": {"type": "DT_FLOAT"}}}, {"name": "StatefulPartitionedCall/sequential_1/MobilenetV3small/re_lu_46/Relu6", "op": "Relu6", "input": ["StatefulPartitionedCall/sequential_1/MobilenetV3small/tf.__operators__.add_36/AddV2"], "attr": {"T": {"type": "DT_FLOAT"}}}, {"name": "StatefulPartitionedCall/sequential_1/MobilenetV3small/multiply_24/mul", "op": "Mul", "input": ["StatefulPartitionedCall/sequential_1/MobilenetV3small/tf.math.multiply_36/Mul", "StatefulPartitionedCall/sequential_1/MobilenetV3small/re_lu_46/Relu6"], "attr": {"_grappler_ArithmeticOptimizer_MinimizeBroadcasts": {"b": true}, "T": {"type": "DT_FLOAT"}}}, {"name": "StatefulPartitionedCall/sequential_1/MobilenetV3small/expanded_conv_5/squeeze_excite/AvgPool/Mean", "op": "Mean", "input": ["StatefulPartitionedCall/sequential_1/MobilenetV3small/multiply_24/mul", "StatefulPartitionedCall/sequential_1/MobilenetV3small/expanded_conv_5/squeeze_excite/AvgPool/Mean/reduction_indices"], "attr": {"T": {"type": "DT_FLOAT"}, "keep_dims": {"b": true}, "Tidx": {"type": "DT_INT32"}}}, {"name": "StatefulPartitionedCall/sequential_1/MobilenetV3small/expanded_conv_5/squeeze_excite/Relu/Relu", "op": "_FusedConv2D", "input": ["StatefulPartitionedCall/sequential_1/MobilenetV3small/expanded_conv_5/squeeze_excite/AvgPool/Mean", "StatefulPartitionedCall/sequential_1/MobilenetV3small/expanded_conv_5/squeeze_excite/Conv/Conv2D/ReadVariableOp", "StatefulPartitionedCall/sequential_1/MobilenetV3small/expanded_conv_5/squeeze_excite/Conv/BiasAdd/ReadVariableOp"], "device": "/device:CPU:0", "attr": {"explicit_paddings": {"list": {}}, "num_args": {"i": "1"}, "fused_ops": {"list": {"s": ["Qmlhc0FkZA==", "UmVsdQ=="]}}, "dilations": {"list": {"i": ["1", "1", "1", "1"]}}, "T": {"type": "DT_FLOAT"}, "use_cudnn_on_gpu": {"b": true}, "padding": {"s": "U0FNRQ=="}, "data_format": {"s": "TkhXQw=="}, "epsilon": {"f": 0.0}, "strides": {"list": {"i": ["1", "1", "1", "1"]}}}}, {"name": "StatefulPartitionedCall/sequential_1/MobilenetV3small/expanded_conv_5/squeeze_excite/Conv_1/BiasAdd", "op": "_FusedConv2D", "input": ["StatefulPartitionedCall/sequential_1/MobilenetV3small/expanded_conv_5/squeeze_excite/Relu/Relu", "StatefulPartitionedCall/sequential_1/MobilenetV3small/expanded_conv_5/squeeze_excite/Conv_1/Conv2D/ReadVariableOp", "StatefulPartitionedCall/sequential_1/MobilenetV3small/expanded_conv_5/squeeze_excite/Conv_1/BiasAdd/ReadVariableOp"], "device": "/device:CPU:0", "attr": {"explicit_paddings": {"list": {}}, "epsilon": {"f": 0.0}, "num_args": {"i": "1"}, "fused_ops": {"list": {"s": ["Qmlhc0FkZA=="]}}, "strides": {"list": {"i": ["1", "1", "1", "1"]}}, "padding": {"s": "U0FNRQ=="}, "data_format": {"s": "TkhXQw=="}, "dilations": {"list": {"i": ["1", "1", "1", "1"]}}, "use_cudnn_on_gpu": {"b": true}, "T": {"type": "DT_FLOAT"}}}, {"name": "StatefulPartitionedCall/sequential_1/MobilenetV3small/tf.__operators__.add_37/AddV2", "op": "AddV2", "input": ["StatefulPartitionedCall/sequential_1/MobilenetV3small/expanded_conv_5/squeeze_excite/Conv_1/BiasAdd", "StatefulPartitionedCall/sequential_1/MobilenetV3small/tf.__operators__.add_37/y"], "attr": {"T": {"type": "DT_FLOAT"}}}, {"name": "StatefulPartitionedCall/sequential_1/MobilenetV3small/re_lu_47/Relu6", "op": "Relu6", "input": ["StatefulPartitionedCall/sequential_1/MobilenetV3small/tf.__operators__.add_37/AddV2"], "attr": {"T": {"type": "DT_FLOAT"}}}, {"name": "StatefulPartitionedCall/sequential_1/MobilenetV3small/tf.math.multiply_37/Mul", "op": "Mul", "input": ["StatefulPartitionedCall/sequential_1/MobilenetV3small/tf.math.multiply_37/Mul/y", "StatefulPartitionedCall/sequential_1/MobilenetV3small/re_lu_47/Relu6"], "attr": {"T": {"type": "DT_FLOAT"}, "_grappler_ArithmeticOptimizer_MinimizeBroadcasts": {"b": true}}}, {"name": "StatefulPartitionedCall/sequential_1/MobilenetV3small/expanded_conv_5/squeeze_excite/Mul/mul", "op": "Mul", "input": ["StatefulPartitionedCall/sequential_1/MobilenetV3small/tf.math.multiply_37/Mul", "StatefulPartitionedCall/sequential_1/MobilenetV3small/multiply_24/mul"], "attr": {"_grappler_ArithmeticOptimizer_MinimizeBroadcasts": {"b": true}, "T": {"type": "DT_FLOAT"}}}, {"name": "StatefulPartitionedCall/sequential_1/MobilenetV3small/expanded_conv_5/project/BatchNorm/FusedBatchNormV3", "op": "_FusedConv2D", "input": ["StatefulPartitionedCall/sequential_1/MobilenetV3small/expanded_conv_5/squeeze_excite/Mul/mul", "StatefulPartitionedCall/sequential_1/MobilenetV3small/expanded_conv_5/project/Conv2D_weights", "StatefulPartitionedCall/sequential_1/MobilenetV3small/expanded_conv_5/project/Conv2D_bn_offset"], "device": "/device:CPU:0", "attr": {"use_cudnn_on_gpu": {"b": true}, "padding": {"s": "U0FNRQ=="}, "num_args": {"i": "1"}, "dilations": {"list": {"i": ["1", "1", "1", "1"]}}, "strides": {"list": {"i": ["1", "1", "1", "1"]}}, "epsilon": {"f": 0.0}, "data_format": {"s": "TkhXQw=="}, "explicit_paddings": {"list": {}}, "T": {"type": "DT_FLOAT"}, "fused_ops": {"list": {"s": ["Qmlhc0FkZA=="]}}}}, {"name": "StatefulPartitionedCall/sequential_1/MobilenetV3small/expanded_conv_5/Add/add", "op": "AddV2", "input": ["StatefulPartitionedCall/sequential_1/MobilenetV3small/expanded_conv_4/Add/add", "StatefulPartitionedCall/sequential_1/MobilenetV3small/expanded_conv_5/project/BatchNorm/FusedBatchNormV3"], "attr": {"T": {"type": "DT_FLOAT"}}}, {"name": "StatefulPartitionedCall/sequential_1/MobilenetV3small/expanded_conv_6/expand/BatchNorm/FusedBatchNormV3", "op": "_FusedConv2D", "input": ["StatefulPartitionedCall/sequential_1/MobilenetV3small/expanded_conv_5/Add/add", "StatefulPartitionedCall/sequential_1/MobilenetV3small/expanded_conv_6/expand/Conv2D_weights", "StatefulPartitionedCall/sequential_1/MobilenetV3small/expanded_conv_6/expand/Conv2D_bn_offset"], "device": "/device:CPU:0", "attr": {"fused_ops": {"list": {"s": ["Qmlhc0FkZA=="]}}, "explicit_paddings": {"list": {}}, "num_args": {"i": "1"}, "T": {"type": "DT_FLOAT"}, "epsilon": {"f": 0.0}, "use_cudnn_on_gpu": {"b": true}, "strides": {"list": {"i": ["1", "1", "1", "1"]}}, "dilations": {"list": {"i": ["1", "1", "1", "1"]}}, "data_format": {"s": "TkhXQw=="}, "padding": {"s": "U0FNRQ=="}}}, {"name": "StatefulPartitionedCall/sequential_1/MobilenetV3small/tf.math.multiply_38/Mul", "op": "Mul", "input": ["StatefulPartitionedCall/sequential_1/MobilenetV3small/tf.math.multiply_38/Mul/y", "StatefulPartitionedCall/sequential_1/MobilenetV3small/expanded_conv_6/expand/BatchNorm/FusedBatchNormV3"], "attr": {"_grappler_ArithmeticOptimizer_MinimizeBroadcasts": {"b": true}, "T": {"type": "DT_FLOAT"}}}, {"name": "StatefulPartitionedCall/sequential_1/MobilenetV3small/tf.__operators__.add_38/AddV2", "op": "AddV2", "input": ["StatefulPartitionedCall/sequential_1/MobilenetV3small/expanded_conv_6/expand/BatchNorm/FusedBatchNormV3", "StatefulPartitionedCall/sequential_1/MobilenetV3small/tf.__operators__.add_38/y"], "attr": {"T": {"type": "DT_FLOAT"}}}, {"name": "StatefulPartitionedCall/sequential_1/MobilenetV3small/re_lu_48/Relu6", "op": "Relu6", "input": ["StatefulPartitionedCall/sequential_1/MobilenetV3small/tf.__operators__.add_38/AddV2"], "attr": {"T": {"type": "DT_FLOAT"}}}, {"name": "StatefulPartitionedCall/sequential_1/MobilenetV3small/multiply_25/mul", "op": "Mul", "input": ["StatefulPartitionedCall/sequential_1/MobilenetV3small/tf.math.multiply_38/Mul", "StatefulPartitionedCall/sequential_1/MobilenetV3small/re_lu_48/Relu6"], "attr": {"T": {"type": "DT_FLOAT"}, "_grappler_ArithmeticOptimizer_MinimizeBroadcasts": {"b": true}}}, {"name": "StatefulPartitionedCall/sequential_1/MobilenetV3small/expanded_conv_6/depthwise/depthwise", "op": "FusedDepthwiseConv2dNative", "input": ["StatefulPartitionedCall/sequential_1/MobilenetV3small/multiply_25/mul", "StatefulPartitionedCall/sequential_1/MobilenetV3small/expanded_conv_6/depthwise/depthwise_weights", "StatefulPartitionedCall/sequential_1/MobilenetV3small/expanded_conv_6/depthwise/depthwise_bn_offset"], "attr": {"strides": {"list": {"i": ["1", "1", "1", "1"]}}, "data_format": {"s": "TkhXQw=="}, "num_args": {"i": "1"}, "T": {"type": "DT_FLOAT"}, "explicit_paddings": {"list": {}}, "padding": {"s": "U0FNRQ=="}, "dilations": {"list": {"i": ["1", "1", "1", "1"]}}, "fused_ops": {"list": {"s": ["Qmlhc0FkZA=="]}}}}, {"name": "StatefulPartitionedCall/sequential_1/MobilenetV3small/tf.math.multiply_39/Mul", "op": "Mul", "input": ["StatefulPartitionedCall/sequential_1/MobilenetV3small/tf.math.multiply_39/Mul/y", "StatefulPartitionedCall/sequential_1/MobilenetV3small/expanded_conv_6/depthwise/depthwise"], "attr": {"_grappler_ArithmeticOptimizer_MinimizeBroadcasts": {"b": true}, "T": {"type": "DT_FLOAT"}}}, {"name": "StatefulPartitionedCall/sequential_1/MobilenetV3small/tf.__operators__.add_39/AddV2", "op": "AddV2", "input": ["StatefulPartitionedCall/sequential_1/MobilenetV3small/expanded_conv_6/depthwise/depthwise", "StatefulPartitionedCall/sequential_1/MobilenetV3small/tf.__operators__.add_39/y"], "attr": {"T": {"type": "DT_FLOAT"}}}, {"name": "StatefulPartitionedCall/sequential_1/MobilenetV3small/re_lu_49/Relu6", "op": "Relu6", "input": ["StatefulPartitionedCall/sequential_1/MobilenetV3small/tf.__operators__.add_39/AddV2"], "attr": {"T": {"type": "DT_FLOAT"}}}, {"name": "StatefulPartitionedCall/sequential_1/MobilenetV3small/multiply_26/mul", "op": "Mul", "input": ["StatefulPartitionedCall/sequential_1/MobilenetV3small/tf.math.multiply_39/Mul", "StatefulPartitionedCall/sequential_1/MobilenetV3small/re_lu_49/Relu6"], "attr": {"T": {"type": "DT_FLOAT"}, "_grappler_ArithmeticOptimizer_MinimizeBroadcasts": {"b": true}}}, {"name": "StatefulPartitionedCall/sequential_1/MobilenetV3small/expanded_conv_6/squeeze_excite/AvgPool/Mean", "op": "Mean", "input": ["StatefulPartitionedCall/sequential_1/MobilenetV3small/multiply_26/mul", "StatefulPartitionedCall/sequential_1/MobilenetV3small/expanded_conv_6/squeeze_excite/AvgPool/Mean/reduction_indices"], "attr": {"T": {"type": "DT_FLOAT"}, "keep_dims": {"b": true}, "Tidx": {"type": "DT_INT32"}}}, {"name": "StatefulPartitionedCall/sequential_1/MobilenetV3small/expanded_conv_6/squeeze_excite/Relu/Relu", "op": "_FusedConv2D", "input": ["StatefulPartitionedCall/sequential_1/MobilenetV3small/expanded_conv_6/squeeze_excite/AvgPool/Mean", "StatefulPartitionedCall/sequential_1/MobilenetV3small/expanded_conv_6/squeeze_excite/Conv/Conv2D/ReadVariableOp", "StatefulPartitionedCall/sequential_1/MobilenetV3small/expanded_conv_6/squeeze_excite/Conv/BiasAdd/ReadVariableOp"], "device": "/device:CPU:0", "attr": {"explicit_paddings": {"list": {}}, "dilations": {"list": {"i": ["1", "1", "1", "1"]}}, "padding": {"s": "U0FNRQ=="}, "strides": {"list": {"i": ["1", "1", "1", "1"]}}, "epsilon": {"f": 0.0}, "use_cudnn_on_gpu": {"b": true}, "T": {"type": "DT_FLOAT"}, "data_format": {"s": "TkhXQw=="}, "fused_ops": {"list": {"s": ["Qmlhc0FkZA==", "UmVsdQ=="]}}, "num_args": {"i": "1"}}}, {"name": "StatefulPartitionedCall/sequential_1/MobilenetV3small/expanded_conv_6/squeeze_excite/Conv_1/BiasAdd", "op": "_FusedConv2D", "input": ["StatefulPartitionedCall/sequential_1/MobilenetV3small/expanded_conv_6/squeeze_excite/Relu/Relu", "StatefulPartitionedCall/sequential_1/MobilenetV3small/expanded_conv_6/squeeze_excite/Conv_1/Conv2D/ReadVariableOp", "StatefulPartitionedCall/sequential_1/MobilenetV3small/expanded_conv_6/squeeze_excite/Conv_1/BiasAdd/ReadVariableOp"], "device": "/device:CPU:0", "attr": {"use_cudnn_on_gpu": {"b": true}, "T": {"type": "DT_FLOAT"}, "explicit_paddings": {"list": {}}, "data_format": {"s": "TkhXQw=="}, "fused_ops": {"list": {"s": ["Qmlhc0FkZA=="]}}, "padding": {"s": "U0FNRQ=="}, "dilations": {"list": {"i": ["1", "1", "1", "1"]}}, "epsilon": {"f": 0.0}, "num_args": {"i": "1"}, "strides": {"list": {"i": ["1", "1", "1", "1"]}}}}, {"name": "StatefulPartitionedCall/sequential_1/MobilenetV3small/tf.__operators__.add_40/AddV2", "op": "AddV2", "input": ["StatefulPartitionedCall/sequential_1/MobilenetV3small/expanded_conv_6/squeeze_excite/Conv_1/BiasAdd", "StatefulPartitionedCall/sequential_1/MobilenetV3small/tf.__operators__.add_40/y"], "attr": {"T": {"type": "DT_FLOAT"}}}, {"name": "StatefulPartitionedCall/sequential_1/MobilenetV3small/re_lu_50/Relu6", "op": "Relu6", "input": ["StatefulPartitionedCall/sequential_1/MobilenetV3small/tf.__operators__.add_40/AddV2"], "attr": {"T": {"type": "DT_FLOAT"}}}, {"name": "StatefulPartitionedCall/sequential_1/MobilenetV3small/tf.math.multiply_40/Mul", "op": "Mul", "input": ["StatefulPartitionedCall/sequential_1/MobilenetV3small/tf.math.multiply_40/Mul/y", "StatefulPartitionedCall/sequential_1/MobilenetV3small/re_lu_50/Relu6"], "attr": {"_grappler_ArithmeticOptimizer_MinimizeBroadcasts": {"b": true}, "T": {"type": "DT_FLOAT"}}}, {"name": "StatefulPartitionedCall/sequential_1/MobilenetV3small/expanded_conv_6/squeeze_excite/Mul/mul", "op": "Mul", "input": ["StatefulPartitionedCall/sequential_1/MobilenetV3small/tf.math.multiply_40/Mul", "StatefulPartitionedCall/sequential_1/MobilenetV3small/multiply_26/mul"], "attr": {"_grappler_ArithmeticOptimizer_MinimizeBroadcasts": {"b": true}, "T": {"type": "DT_FLOAT"}}}, {"name": "StatefulPartitionedCall/sequential_1/MobilenetV3small/expanded_conv_6/project/BatchNorm/FusedBatchNormV3", "op": "_FusedConv2D", "input": ["StatefulPartitionedCall/sequential_1/MobilenetV3small/expanded_conv_6/squeeze_excite/Mul/mul", "StatefulPartitionedCall/sequential_1/MobilenetV3small/expanded_conv_6/project/Conv2D_weights", "StatefulPartitionedCall/sequential_1/MobilenetV3small/expanded_conv_6/project/Conv2D_bn_offset"], "device": "/device:CPU:0", "attr": {"T": {"type": "DT_FLOAT"}, "epsilon": {"f": 0.0}, "data_format": {"s": "TkhXQw=="}, "padding": {"s": "U0FNRQ=="}, "num_args": {"i": "1"}, "strides": {"list": {"i": ["1", "1", "1", "1"]}}, "explicit_paddings": {"list": {}}, "fused_ops": {"list": {"s": ["Qmlhc0FkZA=="]}}, "dilations": {"list": {"i": ["1", "1", "1", "1"]}}, "use_cudnn_on_gpu": {"b": true}}}, {"name": "StatefulPartitionedCall/sequential_1/MobilenetV3small/expanded_conv_7/expand/BatchNorm/FusedBatchNormV3", "op": "_FusedConv2D", "input": ["StatefulPartitionedCall/sequential_1/MobilenetV3small/expanded_conv_6/project/BatchNorm/FusedBatchNormV3", "StatefulPartitionedCall/sequential_1/MobilenetV3small/expanded_conv_7/expand/Conv2D_weights", "StatefulPartitionedCall/sequential_1/MobilenetV3small/expanded_conv_7/expand/Conv2D_bn_offset"], "device": "/device:CPU:0", "attr": {"fused_ops": {"list": {"s": ["Qmlhc0FkZA=="]}}, "num_args": {"i": "1"}, "T": {"type": "DT_FLOAT"}, "epsilon": {"f": 0.0}, "data_format": {"s": "TkhXQw=="}, "use_cudnn_on_gpu": {"b": true}, "padding": {"s": "U0FNRQ=="}, "explicit_paddings": {"list": {}}, "strides": {"list": {"i": ["1", "1", "1", "1"]}}, "dilations": {"list": {"i": ["1", "1", "1", "1"]}}}}, {"name": "StatefulPartitionedCall/sequential_1/MobilenetV3small/tf.math.multiply_41/Mul", "op": "Mul", "input": ["StatefulPartitionedCall/sequential_1/MobilenetV3small/tf.math.multiply_41/Mul/y", "StatefulPartitionedCall/sequential_1/MobilenetV3small/expanded_conv_7/expand/BatchNorm/FusedBatchNormV3"], "attr": {"_grappler_ArithmeticOptimizer_MinimizeBroadcasts": {"b": true}, "T": {"type": "DT_FLOAT"}}}, {"name": "StatefulPartitionedCall/sequential_1/MobilenetV3small/tf.__operators__.add_41/AddV2", "op": "AddV2", "input": ["StatefulPartitionedCall/sequential_1/MobilenetV3small/expanded_conv_7/expand/BatchNorm/FusedBatchNormV3", "StatefulPartitionedCall/sequential_1/MobilenetV3small/tf.__operators__.add_41/y"], "attr": {"T": {"type": "DT_FLOAT"}}}, {"name": "StatefulPartitionedCall/sequential_1/MobilenetV3small/re_lu_51/Relu6", "op": "Relu6", "input": ["StatefulPartitionedCall/sequential_1/MobilenetV3small/tf.__operators__.add_41/AddV2"], "attr": {"T": {"type": "DT_FLOAT"}}}, {"name": "StatefulPartitionedCall/sequential_1/MobilenetV3small/multiply_27/mul", "op": "Mul", "input": ["StatefulPartitionedCall/sequential_1/MobilenetV3small/tf.math.multiply_41/Mul", "StatefulPartitionedCall/sequential_1/MobilenetV3small/re_lu_51/Relu6"], "attr": {"T": {"type": "DT_FLOAT"}, "_grappler_ArithmeticOptimizer_MinimizeBroadcasts": {"b": true}}}, {"name": "StatefulPartitionedCall/sequential_1/MobilenetV3small/expanded_conv_7/depthwise/depthwise", "op": "FusedDepthwiseConv2dNative", "input": ["StatefulPartitionedCall/sequential_1/MobilenetV3small/multiply_27/mul", "StatefulPartitionedCall/sequential_1/MobilenetV3small/expanded_conv_7/depthwise/depthwise_weights", "StatefulPartitionedCall/sequential_1/MobilenetV3small/expanded_conv_7/depthwise/depthwise_bn_offset"], "attr": {"data_format": {"s": "TkhXQw=="}, "dilations": {"list": {"i": ["1", "1", "1", "1"]}}, "T": {"type": "DT_FLOAT"}, "explicit_paddings": {"list": {}}, "fused_ops": {"list": {"s": ["Qmlhc0FkZA=="]}}, "num_args": {"i": "1"}, "padding": {"s": "U0FNRQ=="}, "strides": {"list": {"i": ["1", "1", "1", "1"]}}}}, {"name": "StatefulPartitionedCall/sequential_1/MobilenetV3small/tf.math.multiply_42/Mul", "op": "Mul", "input": ["StatefulPartitionedCall/sequential_1/MobilenetV3small/tf.math.multiply_42/Mul/y", "StatefulPartitionedCall/sequential_1/MobilenetV3small/expanded_conv_7/depthwise/depthwise"], "attr": {"_grappler_ArithmeticOptimizer_MinimizeBroadcasts": {"b": true}, "T": {"type": "DT_FLOAT"}}}, {"name": "StatefulPartitionedCall/sequential_1/MobilenetV3small/tf.__operators__.add_42/AddV2", "op": "AddV2", "input": ["StatefulPartitionedCall/sequential_1/MobilenetV3small/expanded_conv_7/depthwise/depthwise", "StatefulPartitionedCall/sequential_1/MobilenetV3small/tf.__operators__.add_42/y"], "attr": {"T": {"type": "DT_FLOAT"}}}, {"name": "StatefulPartitionedCall/sequential_1/MobilenetV3small/re_lu_52/Relu6", "op": "Relu6", "input": ["StatefulPartitionedCall/sequential_1/MobilenetV3small/tf.__operators__.add_42/AddV2"], "attr": {"T": {"type": "DT_FLOAT"}}}, {"name": "StatefulPartitionedCall/sequential_1/MobilenetV3small/multiply_28/mul", "op": "Mul", "input": ["StatefulPartitionedCall/sequential_1/MobilenetV3small/tf.math.multiply_42/Mul", "StatefulPartitionedCall/sequential_1/MobilenetV3small/re_lu_52/Relu6"], "attr": {"_grappler_ArithmeticOptimizer_MinimizeBroadcasts": {"b": true}, "T": {"type": "DT_FLOAT"}}}, {"name": "StatefulPartitionedCall/sequential_1/MobilenetV3small/expanded_conv_7/squeeze_excite/AvgPool/Mean", "op": "Mean", "input": ["StatefulPartitionedCall/sequential_1/MobilenetV3small/multiply_28/mul", "StatefulPartitionedCall/sequential_1/MobilenetV3small/expanded_conv_7/squeeze_excite/AvgPool/Mean/reduction_indices"], "attr": {"T": {"type": "DT_FLOAT"}, "Tidx": {"type": "DT_INT32"}, "keep_dims": {"b": true}}}, {"name": "StatefulPartitionedCall/sequential_1/MobilenetV3small/expanded_conv_7/squeeze_excite/Relu/Relu", "op": "_FusedConv2D", "input": ["StatefulPartitionedCall/sequential_1/MobilenetV3small/expanded_conv_7/squeeze_excite/AvgPool/Mean", "StatefulPartitionedCall/sequential_1/MobilenetV3small/expanded_conv_7/squeeze_excite/Conv/Conv2D/ReadVariableOp", "StatefulPartitionedCall/sequential_1/MobilenetV3small/expanded_conv_7/squeeze_excite/Conv/BiasAdd/ReadVariableOp"], "device": "/device:CPU:0", "attr": {"dilations": {"list": {"i": ["1", "1", "1", "1"]}}, "padding": {"s": "U0FNRQ=="}, "T": {"type": "DT_FLOAT"}, "data_format": {"s": "TkhXQw=="}, "fused_ops": {"list": {"s": ["Qmlhc0FkZA==", "UmVsdQ=="]}}, "explicit_paddings": {"list": {}}, "num_args": {"i": "1"}, "epsilon": {"f": 0.0}, "strides": {"list": {"i": ["1", "1", "1", "1"]}}, "use_cudnn_on_gpu": {"b": true}}}, {"name": "StatefulPartitionedCall/sequential_1/MobilenetV3small/expanded_conv_7/squeeze_excite/Conv_1/BiasAdd", "op": "_FusedConv2D", "input": ["StatefulPartitionedCall/sequential_1/MobilenetV3small/expanded_conv_7/squeeze_excite/Relu/Relu", "StatefulPartitionedCall/sequential_1/MobilenetV3small/expanded_conv_7/squeeze_excite/Conv_1/Conv2D/ReadVariableOp", "StatefulPartitionedCall/sequential_1/MobilenetV3small/expanded_conv_7/squeeze_excite/Conv_1/BiasAdd/ReadVariableOp"], "device": "/device:CPU:0", "attr": {"use_cudnn_on_gpu": {"b": true}, "data_format": {"s": "TkhXQw=="}, "strides": {"list": {"i": ["1", "1", "1", "1"]}}, "epsilon": {"f": 0.0}, "dilations": {"list": {"i": ["1", "1", "1", "1"]}}, "fused_ops": {"list": {"s": ["Qmlhc0FkZA=="]}}, "T": {"type": "DT_FLOAT"}, "explicit_paddings": {"list": {}}, "padding": {"s": "U0FNRQ=="}, "num_args": {"i": "1"}}}, {"name": "StatefulPartitionedCall/sequential_1/MobilenetV3small/tf.__operators__.add_43/AddV2", "op": "AddV2", "input": ["StatefulPartitionedCall/sequential_1/MobilenetV3small/expanded_conv_7/squeeze_excite/Conv_1/BiasAdd", "StatefulPartitionedCall/sequential_1/MobilenetV3small/tf.__operators__.add_43/y"], "attr": {"T": {"type": "DT_FLOAT"}}}, {"name": "StatefulPartitionedCall/sequential_1/MobilenetV3small/re_lu_53/Relu6", "op": "Relu6", "input": ["StatefulPartitionedCall/sequential_1/MobilenetV3small/tf.__operators__.add_43/AddV2"], "attr": {"T": {"type": "DT_FLOAT"}}}, {"name": "StatefulPartitionedCall/sequential_1/MobilenetV3small/tf.math.multiply_43/Mul", "op": "Mul", "input": ["StatefulPartitionedCall/sequential_1/MobilenetV3small/tf.math.multiply_43/Mul/y", "StatefulPartitionedCall/sequential_1/MobilenetV3small/re_lu_53/Relu6"], "attr": {"_grappler_ArithmeticOptimizer_MinimizeBroadcasts": {"b": true}, "T": {"type": "DT_FLOAT"}}}, {"name": "StatefulPartitionedCall/sequential_1/MobilenetV3small/expanded_conv_7/squeeze_excite/Mul/mul", "op": "Mul", "input": ["StatefulPartitionedCall/sequential_1/MobilenetV3small/tf.math.multiply_43/Mul", "StatefulPartitionedCall/sequential_1/MobilenetV3small/multiply_28/mul"], "attr": {"T": {"type": "DT_FLOAT"}, "_grappler_ArithmeticOptimizer_MinimizeBroadcasts": {"b": true}}}, {"name": "StatefulPartitionedCall/sequential_1/MobilenetV3small/expanded_conv_7/project/BatchNorm/FusedBatchNormV3", "op": "_FusedConv2D", "input": ["StatefulPartitionedCall/sequential_1/MobilenetV3small/expanded_conv_7/squeeze_excite/Mul/mul", "StatefulPartitionedCall/sequential_1/MobilenetV3small/expanded_conv_7/project/Conv2D_weights", "StatefulPartitionedCall/sequential_1/MobilenetV3small/expanded_conv_7/project/Conv2D_bn_offset"], "device": "/device:CPU:0", "attr": {"use_cudnn_on_gpu": {"b": true}, "T": {"type": "DT_FLOAT"}, "explicit_paddings": {"list": {}}, "epsilon": {"f": 0.0}, "strides": {"list": {"i": ["1", "1", "1", "1"]}}, "num_args": {"i": "1"}, "padding": {"s": "U0FNRQ=="}, "fused_ops": {"list": {"s": ["Qmlhc0FkZA=="]}}, "data_format": {"s": "TkhXQw=="}, "dilations": {"list": {"i": ["1", "1", "1", "1"]}}}}, {"name": "StatefulPartitionedCall/sequential_1/MobilenetV3small/expanded_conv_7/Add/add", "op": "AddV2", "input": ["StatefulPartitionedCall/sequential_1/MobilenetV3small/expanded_conv_6/project/BatchNorm/FusedBatchNormV3", "StatefulPartitionedCall/sequential_1/MobilenetV3small/expanded_conv_7/project/BatchNorm/FusedBatchNormV3"], "attr": {"T": {"type": "DT_FLOAT"}}}, {"name": "StatefulPartitionedCall/sequential_1/MobilenetV3small/expanded_conv_8/expand/BatchNorm/FusedBatchNormV3", "op": "_FusedConv2D", "input": ["StatefulPartitionedCall/sequential_1/MobilenetV3small/expanded_conv_7/Add/add", "StatefulPartitionedCall/sequential_1/MobilenetV3small/expanded_conv_8/expand/Conv2D_weights", "StatefulPartitionedCall/sequential_1/MobilenetV3small/expanded_conv_8/expand/Conv2D_bn_offset"], "device": "/device:CPU:0", "attr": {"use_cudnn_on_gpu": {"b": true}, "epsilon": {"f": 0.0}, "padding": {"s": "U0FNRQ=="}, "dilations": {"list": {"i": ["1", "1", "1", "1"]}}, "data_format": {"s": "TkhXQw=="}, "fused_ops": {"list": {"s": ["Qmlhc0FkZA=="]}}, "T": {"type": "DT_FLOAT"}, "strides": {"list": {"i": ["1", "1", "1", "1"]}}, "num_args": {"i": "1"}, "explicit_paddings": {"list": {}}}}, {"name": "StatefulPartitionedCall/sequential_1/MobilenetV3small/tf.math.multiply_44/Mul", "op": "Mul", "input": ["StatefulPartitionedCall/sequential_1/MobilenetV3small/tf.math.multiply_44/Mul/y", "StatefulPartitionedCall/sequential_1/MobilenetV3small/expanded_conv_8/expand/BatchNorm/FusedBatchNormV3"], "attr": {"T": {"type": "DT_FLOAT"}, "_grappler_ArithmeticOptimizer_MinimizeBroadcasts": {"b": true}}}, {"name": "StatefulPartitionedCall/sequential_1/MobilenetV3small/tf.__operators__.add_44/AddV2", "op": "AddV2", "input": ["StatefulPartitionedCall/sequential_1/MobilenetV3small/expanded_conv_8/expand/BatchNorm/FusedBatchNormV3", "StatefulPartitionedCall/sequential_1/MobilenetV3small/tf.__operators__.add_44/y"], "attr": {"T": {"type": "DT_FLOAT"}}}, {"name": "StatefulPartitionedCall/sequential_1/MobilenetV3small/re_lu_54/Relu6", "op": "Relu6", "input": ["StatefulPartitionedCall/sequential_1/MobilenetV3small/tf.__operators__.add_44/AddV2"], "attr": {"T": {"type": "DT_FLOAT"}}}, {"name": "StatefulPartitionedCall/sequential_1/MobilenetV3small/multiply_29/mul", "op": "Mul", "input": ["StatefulPartitionedCall/sequential_1/MobilenetV3small/tf.math.multiply_44/Mul", "StatefulPartitionedCall/sequential_1/MobilenetV3small/re_lu_54/Relu6"], "attr": {"_grappler_ArithmeticOptimizer_MinimizeBroadcasts": {"b": true}, "T": {"type": "DT_FLOAT"}}}, {"name": "StatefulPartitionedCall/sequential_1/MobilenetV3small/expanded_conv_8/depthwise/pad/Pad", "op": "Pad", "input": ["StatefulPartitionedCall/sequential_1/MobilenetV3small/multiply_29/mul", "StatefulPartitionedCall/sequential_1/MobilenetV3small/expanded_conv_8/depthwise/pad/Pad/paddings"], "attr": {"T": {"type": "DT_FLOAT"}, "Tpaddings": {"type": "DT_INT32"}}}, {"name": "StatefulPartitionedCall/sequential_1/MobilenetV3small/expanded_conv_8/depthwise/depthwise", "op": "FusedDepthwiseConv2dNative", "input": ["StatefulPartitionedCall/sequential_1/MobilenetV3small/expanded_conv_8/depthwise/pad/Pad", "StatefulPartitionedCall/sequential_1/MobilenetV3small/expanded_conv_8/depthwise/depthwise_weights", "StatefulPartitionedCall/sequential_1/MobilenetV3small/expanded_conv_8/depthwise/depthwise_bn_offset"], "attr": {"explicit_paddings": {"list": {}}, "fused_ops": {"list": {"s": ["Qmlhc0FkZA=="]}}, "padding": {"s": "VkFMSUQ="}, "T": {"type": "DT_FLOAT"}, "data_format": {"s": "TkhXQw=="}, "dilations": {"list": {"i": ["1", "1", "1", "1"]}}, "num_args": {"i": "1"}, "strides": {"list": {"i": ["1", "2", "2", "1"]}}}}, {"name": "StatefulPartitionedCall/sequential_1/MobilenetV3small/tf.math.multiply_45/Mul", "op": "Mul", "input": ["StatefulPartitionedCall/sequential_1/MobilenetV3small/tf.math.multiply_45/Mul/y", "StatefulPartitionedCall/sequential_1/MobilenetV3small/expanded_conv_8/depthwise/depthwise"], "attr": {"_grappler_ArithmeticOptimizer_MinimizeBroadcasts": {"b": true}, "T": {"type": "DT_FLOAT"}}}, {"name": "StatefulPartitionedCall/sequential_1/MobilenetV3small/tf.__operators__.add_45/AddV2", "op": "AddV2", "input": ["StatefulPartitionedCall/sequential_1/MobilenetV3small/expanded_conv_8/depthwise/depthwise", "StatefulPartitionedCall/sequential_1/MobilenetV3small/tf.__operators__.add_45/y"], "attr": {"T": {"type": "DT_FLOAT"}}}, {"name": "StatefulPartitionedCall/sequential_1/MobilenetV3small/re_lu_55/Relu6", "op": "Relu6", "input": ["StatefulPartitionedCall/sequential_1/MobilenetV3small/tf.__operators__.add_45/AddV2"], "attr": {"T": {"type": "DT_FLOAT"}}}, {"name": "StatefulPartitionedCall/sequential_1/MobilenetV3small/multiply_30/mul", "op": "Mul", "input": ["StatefulPartitionedCall/sequential_1/MobilenetV3small/tf.math.multiply_45/Mul", "StatefulPartitionedCall/sequential_1/MobilenetV3small/re_lu_55/Relu6"], "attr": {"_grappler_ArithmeticOptimizer_MinimizeBroadcasts": {"b": true}, "T": {"type": "DT_FLOAT"}}}, {"name": "StatefulPartitionedCall/sequential_1/MobilenetV3small/expanded_conv_8/squeeze_excite/AvgPool/Mean", "op": "Mean", "input": ["StatefulPartitionedCall/sequential_1/MobilenetV3small/multiply_30/mul", "StatefulPartitionedCall/sequential_1/MobilenetV3small/expanded_conv_8/squeeze_excite/AvgPool/Mean/reduction_indices"], "attr": {"T": {"type": "DT_FLOAT"}, "keep_dims": {"b": true}, "Tidx": {"type": "DT_INT32"}}}, {"name": "StatefulPartitionedCall/sequential_1/MobilenetV3small/expanded_conv_8/squeeze_excite/Relu/Relu", "op": "_FusedConv2D", "input": ["StatefulPartitionedCall/sequential_1/MobilenetV3small/expanded_conv_8/squeeze_excite/AvgPool/Mean", "StatefulPartitionedCall/sequential_1/MobilenetV3small/expanded_conv_8/squeeze_excite/Conv/Conv2D/ReadVariableOp", "StatefulPartitionedCall/sequential_1/MobilenetV3small/expanded_conv_8/squeeze_excite/Conv/BiasAdd/ReadVariableOp"], "device": "/device:CPU:0", "attr": {"use_cudnn_on_gpu": {"b": true}, "epsilon": {"f": 0.0}, "num_args": {"i": "1"}, "fused_ops": {"list": {"s": ["Qmlhc0FkZA==", "UmVsdQ=="]}}, "T": {"type": "DT_FLOAT"}, "data_format": {"s": "TkhXQw=="}, "strides": {"list": {"i": ["1", "1", "1", "1"]}}, "padding": {"s": "U0FNRQ=="}, "dilations": {"list": {"i": ["1", "1", "1", "1"]}}, "explicit_paddings": {"list": {}}}}, {"name": "StatefulPartitionedCall/sequential_1/MobilenetV3small/expanded_conv_8/squeeze_excite/Conv_1/BiasAdd", "op": "_FusedConv2D", "input": ["StatefulPartitionedCall/sequential_1/MobilenetV3small/expanded_conv_8/squeeze_excite/Relu/Relu", "StatefulPartitionedCall/sequential_1/MobilenetV3small/expanded_conv_8/squeeze_excite/Conv_1/Conv2D/ReadVariableOp", "StatefulPartitionedCall/sequential_1/MobilenetV3small/expanded_conv_8/squeeze_excite/Conv_1/BiasAdd/ReadVariableOp"], "device": "/device:CPU:0", "attr": {"padding": {"s": "U0FNRQ=="}, "strides": {"list": {"i": ["1", "1", "1", "1"]}}, "T": {"type": "DT_FLOAT"}, "dilations": {"list": {"i": ["1", "1", "1", "1"]}}, "explicit_paddings": {"list": {}}, "num_args": {"i": "1"}, "use_cudnn_on_gpu": {"b": true}, "epsilon": {"f": 0.0}, "data_format": {"s": "TkhXQw=="}, "fused_ops": {"list": {"s": ["Qmlhc0FkZA=="]}}}}, {"name": "StatefulPartitionedCall/sequential_1/MobilenetV3small/tf.__operators__.add_46/AddV2", "op": "AddV2", "input": ["StatefulPartitionedCall/sequential_1/MobilenetV3small/expanded_conv_8/squeeze_excite/Conv_1/BiasAdd", "StatefulPartitionedCall/sequential_1/MobilenetV3small/tf.__operators__.add_46/y"], "attr": {"T": {"type": "DT_FLOAT"}}}, {"name": "StatefulPartitionedCall/sequential_1/MobilenetV3small/re_lu_56/Relu6", "op": "Relu6", "input": ["StatefulPartitionedCall/sequential_1/MobilenetV3small/tf.__operators__.add_46/AddV2"], "attr": {"T": {"type": "DT_FLOAT"}}}, {"name": "StatefulPartitionedCall/sequential_1/MobilenetV3small/tf.math.multiply_46/Mul", "op": "Mul", "input": ["StatefulPartitionedCall/sequential_1/MobilenetV3small/tf.math.multiply_46/Mul/y", "StatefulPartitionedCall/sequential_1/MobilenetV3small/re_lu_56/Relu6"], "attr": {"T": {"type": "DT_FLOAT"}, "_grappler_ArithmeticOptimizer_MinimizeBroadcasts": {"b": true}}}, {"name": "StatefulPartitionedCall/sequential_1/MobilenetV3small/expanded_conv_8/squeeze_excite/Mul/mul", "op": "Mul", "input": ["StatefulPartitionedCall/sequential_1/MobilenetV3small/tf.math.multiply_46/Mul", "StatefulPartitionedCall/sequential_1/MobilenetV3small/multiply_30/mul"], "attr": {"T": {"type": "DT_FLOAT"}, "_grappler_ArithmeticOptimizer_MinimizeBroadcasts": {"b": true}}}, {"name": "StatefulPartitionedCall/sequential_1/MobilenetV3small/expanded_conv_8/project/BatchNorm/FusedBatchNormV3", "op": "_FusedConv2D", "input": ["StatefulPartitionedCall/sequential_1/MobilenetV3small/expanded_conv_8/squeeze_excite/Mul/mul", "StatefulPartitionedCall/sequential_1/MobilenetV3small/expanded_conv_8/project/Conv2D_weights", "StatefulPartitionedCall/sequential_1/MobilenetV3small/expanded_conv_8/project/Conv2D_bn_offset"], "device": "/device:CPU:0", "attr": {"dilations": {"list": {"i": ["1", "1", "1", "1"]}}, "explicit_paddings": {"list": {}}, "fused_ops": {"list": {"s": ["Qmlhc0FkZA=="]}}, "padding": {"s": "U0FNRQ=="}, "epsilon": {"f": 0.0}, "strides": {"list": {"i": ["1", "1", "1", "1"]}}, "data_format": {"s": "TkhXQw=="}, "use_cudnn_on_gpu": {"b": true}, "T": {"type": "DT_FLOAT"}, "num_args": {"i": "1"}}}, {"name": "StatefulPartitionedCall/sequential_1/MobilenetV3small/expanded_conv_9/expand/BatchNorm/FusedBatchNormV3", "op": "_FusedConv2D", "input": ["StatefulPartitionedCall/sequential_1/MobilenetV3small/expanded_conv_8/project/BatchNorm/FusedBatchNormV3", "StatefulPartitionedCall/sequential_1/MobilenetV3small/expanded_conv_9/expand/Conv2D_weights", "StatefulPartitionedCall/sequential_1/MobilenetV3small/expanded_conv_9/expand/Conv2D_bn_offset"], "device": "/device:CPU:0", "attr": {"padding": {"s": "U0FNRQ=="}, "T": {"type": "DT_FLOAT"}, "epsilon": {"f": 0.0}, "num_args": {"i": "1"}, "dilations": {"list": {"i": ["1", "1", "1", "1"]}}, "strides": {"list": {"i": ["1", "1", "1", "1"]}}, "fused_ops": {"list": {"s": ["Qmlhc0FkZA=="]}}, "explicit_paddings": {"list": {}}, "use_cudnn_on_gpu": {"b": true}, "data_format": {"s": "TkhXQw=="}}}, {"name": "StatefulPartitionedCall/sequential_1/MobilenetV3small/tf.math.multiply_47/Mul", "op": "Mul", "input": ["StatefulPartitionedCall/sequential_1/MobilenetV3small/tf.math.multiply_47/Mul/y", "StatefulPartitionedCall/sequential_1/MobilenetV3small/expanded_conv_9/expand/BatchNorm/FusedBatchNormV3"], "attr": {"_grappler_ArithmeticOptimizer_MinimizeBroadcasts": {"b": true}, "T": {"type": "DT_FLOAT"}}}, {"name": "StatefulPartitionedCall/sequential_1/MobilenetV3small/tf.__operators__.add_47/AddV2", "op": "AddV2", "input": ["StatefulPartitionedCall/sequential_1/MobilenetV3small/expanded_conv_9/expand/BatchNorm/FusedBatchNormV3", "StatefulPartitionedCall/sequential_1/MobilenetV3small/tf.__operators__.add_47/y"], "attr": {"T": {"type": "DT_FLOAT"}}}, {"name": "StatefulPartitionedCall/sequential_1/MobilenetV3small/re_lu_57/Relu6", "op": "Relu6", "input": ["StatefulPartitionedCall/sequential_1/MobilenetV3small/tf.__operators__.add_47/AddV2"], "attr": {"T": {"type": "DT_FLOAT"}}}, {"name": "StatefulPartitionedCall/sequential_1/MobilenetV3small/multiply_31/mul", "op": "Mul", "input": ["StatefulPartitionedCall/sequential_1/MobilenetV3small/tf.math.multiply_47/Mul", "StatefulPartitionedCall/sequential_1/MobilenetV3small/re_lu_57/Relu6"], "attr": {"T": {"type": "DT_FLOAT"}, "_grappler_ArithmeticOptimizer_MinimizeBroadcasts": {"b": true}}}, {"name": "StatefulPartitionedCall/sequential_1/MobilenetV3small/expanded_conv_9/depthwise/depthwise", "op": "FusedDepthwiseConv2dNative", "input": ["StatefulPartitionedCall/sequential_1/MobilenetV3small/multiply_31/mul", "StatefulPartitionedCall/sequential_1/MobilenetV3small/expanded_conv_9/depthwise/depthwise_weights", "StatefulPartitionedCall/sequential_1/MobilenetV3small/expanded_conv_9/depthwise/depthwise_bn_offset"], "attr": {"num_args": {"i": "1"}, "padding": {"s": "U0FNRQ=="}, "dilations": {"list": {"i": ["1", "1", "1", "1"]}}, "explicit_paddings": {"list": {}}, "fused_ops": {"list": {"s": ["Qmlhc0FkZA=="]}}, "strides": {"list": {"i": ["1", "1", "1", "1"]}}, "T": {"type": "DT_FLOAT"}, "data_format": {"s": "TkhXQw=="}}}, {"name": "StatefulPartitionedCall/sequential_1/MobilenetV3small/tf.math.multiply_48/Mul", "op": "Mul", "input": ["StatefulPartitionedCall/sequential_1/MobilenetV3small/tf.math.multiply_48/Mul/y", "StatefulPartitionedCall/sequential_1/MobilenetV3small/expanded_conv_9/depthwise/depthwise"], "attr": {"_grappler_ArithmeticOptimizer_MinimizeBroadcasts": {"b": true}, "T": {"type": "DT_FLOAT"}}}, {"name": "StatefulPartitionedCall/sequential_1/MobilenetV3small/tf.__operators__.add_48/AddV2", "op": "AddV2", "input": ["StatefulPartitionedCall/sequential_1/MobilenetV3small/expanded_conv_9/depthwise/depthwise", "StatefulPartitionedCall/sequential_1/MobilenetV3small/tf.__operators__.add_48/y"], "attr": {"T": {"type": "DT_FLOAT"}}}, {"name": "StatefulPartitionedCall/sequential_1/MobilenetV3small/re_lu_58/Relu6", "op": "Relu6", "input": ["StatefulPartitionedCall/sequential_1/MobilenetV3small/tf.__operators__.add_48/AddV2"], "attr": {"T": {"type": "DT_FLOAT"}}}, {"name": "StatefulPartitionedCall/sequential_1/MobilenetV3small/multiply_32/mul", "op": "Mul", "input": ["StatefulPartitionedCall/sequential_1/MobilenetV3small/tf.math.multiply_48/Mul", "StatefulPartitionedCall/sequential_1/MobilenetV3small/re_lu_58/Relu6"], "attr": {"_grappler_ArithmeticOptimizer_MinimizeBroadcasts": {"b": true}, "T": {"type": "DT_FLOAT"}}}, {"name": "StatefulPartitionedCall/sequential_1/MobilenetV3small/expanded_conv_9/squeeze_excite/AvgPool/Mean", "op": "Mean", "input": ["StatefulPartitionedCall/sequential_1/MobilenetV3small/multiply_32/mul", "StatefulPartitionedCall/sequential_1/MobilenetV3small/expanded_conv_9/squeeze_excite/AvgPool/Mean/reduction_indices"], "attr": {"keep_dims": {"b": true}, "T": {"type": "DT_FLOAT"}, "Tidx": {"type": "DT_INT32"}}}, {"name": "StatefulPartitionedCall/sequential_1/MobilenetV3small/expanded_conv_9/squeeze_excite/Relu/Relu", "op": "_FusedConv2D", "input": ["StatefulPartitionedCall/sequential_1/MobilenetV3small/expanded_conv_9/squeeze_excite/AvgPool/Mean", "StatefulPartitionedCall/sequential_1/MobilenetV3small/expanded_conv_9/squeeze_excite/Conv/Conv2D/ReadVariableOp", "StatefulPartitionedCall/sequential_1/MobilenetV3small/expanded_conv_9/squeeze_excite/Conv/BiasAdd/ReadVariableOp"], "device": "/device:CPU:0", "attr": {"strides": {"list": {"i": ["1", "1", "1", "1"]}}, "num_args": {"i": "1"}, "data_format": {"s": "TkhXQw=="}, "padding": {"s": "U0FNRQ=="}, "epsilon": {"f": 0.0}, "T": {"type": "DT_FLOAT"}, "fused_ops": {"list": {"s": ["Qmlhc0FkZA==", "UmVsdQ=="]}}, "use_cudnn_on_gpu": {"b": true}, "dilations": {"list": {"i": ["1", "1", "1", "1"]}}, "explicit_paddings": {"list": {}}}}, {"name": "StatefulPartitionedCall/sequential_1/MobilenetV3small/expanded_conv_9/squeeze_excite/Conv_1/BiasAdd", "op": "_FusedConv2D", "input": ["StatefulPartitionedCall/sequential_1/MobilenetV3small/expanded_conv_9/squeeze_excite/Relu/Relu", "StatefulPartitionedCall/sequential_1/MobilenetV3small/expanded_conv_9/squeeze_excite/Conv_1/Conv2D/ReadVariableOp", "StatefulPartitionedCall/sequential_1/MobilenetV3small/expanded_conv_9/squeeze_excite/Conv_1/BiasAdd/ReadVariableOp"], "device": "/device:CPU:0", "attr": {"epsilon": {"f": 0.0}, "num_args": {"i": "1"}, "data_format": {"s": "TkhXQw=="}, "T": {"type": "DT_FLOAT"}, "fused_ops": {"list": {"s": ["Qmlhc0FkZA=="]}}, "dilations": {"list": {"i": ["1", "1", "1", "1"]}}, "strides": {"list": {"i": ["1", "1", "1", "1"]}}, "explicit_paddings": {"list": {}}, "use_cudnn_on_gpu": {"b": true}, "padding": {"s": "U0FNRQ=="}}}, {"name": "StatefulPartitionedCall/sequential_1/MobilenetV3small/tf.__operators__.add_49/AddV2", "op": "AddV2", "input": ["StatefulPartitionedCall/sequential_1/MobilenetV3small/expanded_conv_9/squeeze_excite/Conv_1/BiasAdd", "StatefulPartitionedCall/sequential_1/MobilenetV3small/tf.__operators__.add_49/y"], "attr": {"T": {"type": "DT_FLOAT"}}}, {"name": "StatefulPartitionedCall/sequential_1/MobilenetV3small/re_lu_59/Relu6", "op": "Relu6", "input": ["StatefulPartitionedCall/sequential_1/MobilenetV3small/tf.__operators__.add_49/AddV2"], "attr": {"T": {"type": "DT_FLOAT"}}}, {"name": "StatefulPartitionedCall/sequential_1/MobilenetV3small/tf.math.multiply_49/Mul", "op": "Mul", "input": ["StatefulPartitionedCall/sequential_1/MobilenetV3small/tf.math.multiply_49/Mul/y", "StatefulPartitionedCall/sequential_1/MobilenetV3small/re_lu_59/Relu6"], "attr": {"_grappler_ArithmeticOptimizer_MinimizeBroadcasts": {"b": true}, "T": {"type": "DT_FLOAT"}}}, {"name": "StatefulPartitionedCall/sequential_1/MobilenetV3small/expanded_conv_9/squeeze_excite/Mul/mul", "op": "Mul", "input": ["StatefulPartitionedCall/sequential_1/MobilenetV3small/tf.math.multiply_49/Mul", "StatefulPartitionedCall/sequential_1/MobilenetV3small/multiply_32/mul"], "attr": {"_grappler_ArithmeticOptimizer_MinimizeBroadcasts": {"b": true}, "T": {"type": "DT_FLOAT"}}}, {"name": "StatefulPartitionedCall/sequential_1/MobilenetV3small/expanded_conv_9/project/BatchNorm/FusedBatchNormV3", "op": "_FusedConv2D", "input": ["StatefulPartitionedCall/sequential_1/MobilenetV3small/expanded_conv_9/squeeze_excite/Mul/mul", "StatefulPartitionedCall/sequential_1/MobilenetV3small/expanded_conv_9/project/Conv2D_weights", "StatefulPartitionedCall/sequential_1/MobilenetV3small/expanded_conv_9/project/Conv2D_bn_offset"], "device": "/device:CPU:0", "attr": {"data_format": {"s": "TkhXQw=="}, "dilations": {"list": {"i": ["1", "1", "1", "1"]}}, "explicit_paddings": {"list": {}}, "epsilon": {"f": 0.0}, "fused_ops": {"list": {"s": ["Qmlhc0FkZA=="]}}, "strides": {"list": {"i": ["1", "1", "1", "1"]}}, "padding": {"s": "U0FNRQ=="}, "num_args": {"i": "1"}, "use_cudnn_on_gpu": {"b": true}, "T": {"type": "DT_FLOAT"}}}, {"name": "StatefulPartitionedCall/sequential_1/MobilenetV3small/expanded_conv_9/Add/add", "op": "AddV2", "input": ["StatefulPartitionedCall/sequential_1/MobilenetV3small/expanded_conv_8/project/BatchNorm/FusedBatchNormV3", "StatefulPartitionedCall/sequential_1/MobilenetV3small/expanded_conv_9/project/BatchNorm/FusedBatchNormV3"], "attr": {"T": {"type": "DT_FLOAT"}}}, {"name": "StatefulPartitionedCall/sequential_1/MobilenetV3small/expanded_conv_10/expand/BatchNorm/FusedBatchNormV3", "op": "_FusedConv2D", "input": ["StatefulPartitionedCall/sequential_1/MobilenetV3small/expanded_conv_9/Add/add", "StatefulPartitionedCall/sequential_1/MobilenetV3small/expanded_conv_10/expand/Conv2D_weights", "StatefulPartitionedCall/sequential_1/MobilenetV3small/expanded_conv_10/expand/Conv2D_bn_offset"], "device": "/device:CPU:0", "attr": {"epsilon": {"f": 0.0}, "explicit_paddings": {"list": {}}, "num_args": {"i": "1"}, "strides": {"list": {"i": ["1", "1", "1", "1"]}}, "fused_ops": {"list": {"s": ["Qmlhc0FkZA=="]}}, "padding": {"s": "U0FNRQ=="}, "T": {"type": "DT_FLOAT"}, "dilations": {"list": {"i": ["1", "1", "1", "1"]}}, "data_format": {"s": "TkhXQw=="}, "use_cudnn_on_gpu": {"b": true}}}, {"name": "StatefulPartitionedCall/sequential_1/MobilenetV3small/tf.math.multiply_50/Mul", "op": "Mul", "input": ["StatefulPartitionedCall/sequential_1/MobilenetV3small/tf.math.multiply_50/Mul/y", "StatefulPartitionedCall/sequential_1/MobilenetV3small/expanded_conv_10/expand/BatchNorm/FusedBatchNormV3"], "attr": {"T": {"type": "DT_FLOAT"}, "_grappler_ArithmeticOptimizer_MinimizeBroadcasts": {"b": true}}}, {"name": "StatefulPartitionedCall/sequential_1/MobilenetV3small/tf.__operators__.add_50/AddV2", "op": "AddV2", "input": ["StatefulPartitionedCall/sequential_1/MobilenetV3small/expanded_conv_10/expand/BatchNorm/FusedBatchNormV3", "StatefulPartitionedCall/sequential_1/MobilenetV3small/tf.__operators__.add_50/y"], "attr": {"T": {"type": "DT_FLOAT"}}}, {"name": "StatefulPartitionedCall/sequential_1/MobilenetV3small/re_lu_60/Relu6", "op": "Relu6", "input": ["StatefulPartitionedCall/sequential_1/MobilenetV3small/tf.__operators__.add_50/AddV2"], "attr": {"T": {"type": "DT_FLOAT"}}}, {"name": "StatefulPartitionedCall/sequential_1/MobilenetV3small/multiply_33/mul", "op": "Mul", "input": ["StatefulPartitionedCall/sequential_1/MobilenetV3small/tf.math.multiply_50/Mul", "StatefulPartitionedCall/sequential_1/MobilenetV3small/re_lu_60/Relu6"], "attr": {"_grappler_ArithmeticOptimizer_MinimizeBroadcasts": {"b": true}, "T": {"type": "DT_FLOAT"}}}, {"name": "StatefulPartitionedCall/sequential_1/MobilenetV3small/expanded_conv_10/depthwise/depthwise", "op": "FusedDepthwiseConv2dNative", "input": ["StatefulPartitionedCall/sequential_1/MobilenetV3small/multiply_33/mul", "StatefulPartitionedCall/sequential_1/MobilenetV3small/expanded_conv_10/depthwise/depthwise_weights", "StatefulPartitionedCall/sequential_1/MobilenetV3small/expanded_conv_10/depthwise/depthwise_bn_offset"], "attr": {"num_args": {"i": "1"}, "strides": {"list": {"i": ["1", "1", "1", "1"]}}, "padding": {"s": "U0FNRQ=="}, "explicit_paddings": {"list": {}}, "dilations": {"list": {"i": ["1", "1", "1", "1"]}}, "data_format": {"s": "TkhXQw=="}, "T": {"type": "DT_FLOAT"}, "fused_ops": {"list": {"s": ["Qmlhc0FkZA=="]}}}}, {"name": "StatefulPartitionedCall/sequential_1/MobilenetV3small/tf.math.multiply_51/Mul", "op": "Mul", "input": ["StatefulPartitionedCall/sequential_1/MobilenetV3small/tf.math.multiply_51/Mul/y", "StatefulPartitionedCall/sequential_1/MobilenetV3small/expanded_conv_10/depthwise/depthwise"], "attr": {"T": {"type": "DT_FLOAT"}, "_grappler_ArithmeticOptimizer_MinimizeBroadcasts": {"b": true}}}, {"name": "StatefulPartitionedCall/sequential_1/MobilenetV3small/tf.__operators__.add_51/AddV2", "op": "AddV2", "input": ["StatefulPartitionedCall/sequential_1/MobilenetV3small/expanded_conv_10/depthwise/depthwise", "StatefulPartitionedCall/sequential_1/MobilenetV3small/tf.__operators__.add_51/y"], "attr": {"T": {"type": "DT_FLOAT"}}}, {"name": "StatefulPartitionedCall/sequential_1/MobilenetV3small/re_lu_61/Relu6", "op": "Relu6", "input": ["StatefulPartitionedCall/sequential_1/MobilenetV3small/tf.__operators__.add_51/AddV2"], "attr": {"T": {"type": "DT_FLOAT"}}}, {"name": "StatefulPartitionedCall/sequential_1/MobilenetV3small/multiply_34/mul", "op": "Mul", "input": ["StatefulPartitionedCall/sequential_1/MobilenetV3small/tf.math.multiply_51/Mul", "StatefulPartitionedCall/sequential_1/MobilenetV3small/re_lu_61/Relu6"], "attr": {"_grappler_ArithmeticOptimizer_MinimizeBroadcasts": {"b": true}, "T": {"type": "DT_FLOAT"}}}, {"name": "StatefulPartitionedCall/sequential_1/MobilenetV3small/expanded_conv_10/squeeze_excite/AvgPool/Mean", "op": "Mean", "input": ["StatefulPartitionedCall/sequential_1/MobilenetV3small/multiply_34/mul", "StatefulPartitionedCall/sequential_1/MobilenetV3small/expanded_conv_10/squeeze_excite/AvgPool/Mean/reduction_indices"], "attr": {"Tidx": {"type": "DT_INT32"}, "T": {"type": "DT_FLOAT"}, "keep_dims": {"b": true}}}, {"name": "StatefulPartitionedCall/sequential_1/MobilenetV3small/expanded_conv_10/squeeze_excite/Relu/Relu", "op": "_FusedConv2D", "input": ["StatefulPartitionedCall/sequential_1/MobilenetV3small/expanded_conv_10/squeeze_excite/AvgPool/Mean", "StatefulPartitionedCall/sequential_1/MobilenetV3small/expanded_conv_10/squeeze_excite/Conv/Conv2D/ReadVariableOp", "StatefulPartitionedCall/sequential_1/MobilenetV3small/expanded_conv_10/squeeze_excite/Conv/BiasAdd/ReadVariableOp"], "device": "/device:CPU:0", "attr": {"epsilon": {"f": 0.0}, "T": {"type": "DT_FLOAT"}, "explicit_paddings": {"list": {}}, "dilations": {"list": {"i": ["1", "1", "1", "1"]}}, "strides": {"list": {"i": ["1", "1", "1", "1"]}}, "use_cudnn_on_gpu": {"b": true}, "padding": {"s": "U0FNRQ=="}, "num_args": {"i": "1"}, "data_format": {"s": "TkhXQw=="}, "fused_ops": {"list": {"s": ["Qmlhc0FkZA==", "UmVsdQ=="]}}}}, {"name": "StatefulPartitionedCall/sequential_1/MobilenetV3small/expanded_conv_10/squeeze_excite/Conv_1/BiasAdd", "op": "_FusedConv2D", "input": ["StatefulPartitionedCall/sequential_1/MobilenetV3small/expanded_conv_10/squeeze_excite/Relu/Relu", "StatefulPartitionedCall/sequential_1/MobilenetV3small/expanded_conv_10/squeeze_excite/Conv_1/Conv2D/ReadVariableOp", "StatefulPartitionedCall/sequential_1/MobilenetV3small/expanded_conv_10/squeeze_excite/Conv_1/BiasAdd/ReadVariableOp"], "device": "/device:CPU:0", "attr": {"fused_ops": {"list": {"s": ["Qmlhc0FkZA=="]}}, "T": {"type": "DT_FLOAT"}, "epsilon": {"f": 0.0}, "use_cudnn_on_gpu": {"b": true}, "explicit_paddings": {"list": {}}, "dilations": {"list": {"i": ["1", "1", "1", "1"]}}, "padding": {"s": "U0FNRQ=="}, "strides": {"list": {"i": ["1", "1", "1", "1"]}}, "num_args": {"i": "1"}, "data_format": {"s": "TkhXQw=="}}}, {"name": "StatefulPartitionedCall/sequential_1/MobilenetV3small/tf.__operators__.add_52/AddV2", "op": "AddV2", "input": ["StatefulPartitionedCall/sequential_1/MobilenetV3small/expanded_conv_10/squeeze_excite/Conv_1/BiasAdd", "StatefulPartitionedCall/sequential_1/MobilenetV3small/tf.__operators__.add_52/y"], "attr": {"T": {"type": "DT_FLOAT"}}}, {"name": "StatefulPartitionedCall/sequential_1/MobilenetV3small/re_lu_62/Relu6", "op": "Relu6", "input": ["StatefulPartitionedCall/sequential_1/MobilenetV3small/tf.__operators__.add_52/AddV2"], "attr": {"T": {"type": "DT_FLOAT"}}}, {"name": "StatefulPartitionedCall/sequential_1/MobilenetV3small/tf.math.multiply_52/Mul", "op": "Mul", "input": ["StatefulPartitionedCall/sequential_1/MobilenetV3small/tf.math.multiply_52/Mul/y", "StatefulPartitionedCall/sequential_1/MobilenetV3small/re_lu_62/Relu6"], "attr": {"_grappler_ArithmeticOptimizer_MinimizeBroadcasts": {"b": true}, "T": {"type": "DT_FLOAT"}}}, {"name": "StatefulPartitionedCall/sequential_1/MobilenetV3small/expanded_conv_10/squeeze_excite/Mul/mul", "op": "Mul", "input": ["StatefulPartitionedCall/sequential_1/MobilenetV3small/tf.math.multiply_52/Mul", "StatefulPartitionedCall/sequential_1/MobilenetV3small/multiply_34/mul"], "attr": {"T": {"type": "DT_FLOAT"}, "_grappler_ArithmeticOptimizer_MinimizeBroadcasts": {"b": true}}}, {"name": "StatefulPartitionedCall/sequential_1/MobilenetV3small/expanded_conv_10/project/BatchNorm/FusedBatchNormV3", "op": "_FusedConv2D", "input": ["StatefulPartitionedCall/sequential_1/MobilenetV3small/expanded_conv_10/squeeze_excite/Mul/mul", "StatefulPartitionedCall/sequential_1/MobilenetV3small/expanded_conv_10/project/Conv2D_weights", "StatefulPartitionedCall/sequential_1/MobilenetV3small/expanded_conv_10/project/Conv2D_bn_offset"], "device": "/device:CPU:0", "attr": {"strides": {"list": {"i": ["1", "1", "1", "1"]}}, "num_args": {"i": "1"}, "T": {"type": "DT_FLOAT"}, "epsilon": {"f": 0.0}, "explicit_paddings": {"list": {}}, "use_cudnn_on_gpu": {"b": true}, "padding": {"s": "U0FNRQ=="}, "data_format": {"s": "TkhXQw=="}, "fused_ops": {"list": {"s": ["Qmlhc0FkZA=="]}}, "dilations": {"list": {"i": ["1", "1", "1", "1"]}}}}, {"name": "StatefulPartitionedCall/sequential_1/MobilenetV3small/expanded_conv_10/Add/add", "op": "AddV2", "input": ["StatefulPartitionedCall/sequential_1/MobilenetV3small/expanded_conv_9/Add/add", "StatefulPartitionedCall/sequential_1/MobilenetV3small/expanded_conv_10/project/BatchNorm/FusedBatchNormV3"], "attr": {"T": {"type": "DT_FLOAT"}}}, {"name": "StatefulPartitionedCall/sequential_1/MobilenetV3small/Conv_1/BatchNorm/FusedBatchNormV3", "op": "_FusedConv2D", "input": ["StatefulPartitionedCall/sequential_1/MobilenetV3small/expanded_conv_10/Add/add", "StatefulPartitionedCall/sequential_1/MobilenetV3small/Conv_1/Conv2D_weights", "StatefulPartitionedCall/sequential_1/MobilenetV3small/Conv_1/Conv2D_bn_offset"], "device": "/device:CPU:0", "attr": {"epsilon": {"f": 0.0}, "num_args": {"i": "1"}, "strides": {"list": {"i": ["1", "1", "1", "1"]}}, "data_format": {"s": "TkhXQw=="}, "padding": {"s": "U0FNRQ=="}, "T": {"type": "DT_FLOAT"}, "explicit_paddings": {"list": {}}, "use_cudnn_on_gpu": {"b": true}, "dilations": {"list": {"i": ["1", "1", "1", "1"]}}, "fused_ops": {"list": {"s": ["Qmlhc0FkZA=="]}}}}, {"name": "StatefulPartitionedCall/sequential_1/MobilenetV3small/tf.math.multiply_53/Mul", "op": "Mul", "input": ["StatefulPartitionedCall/sequential_1/MobilenetV3small/tf.math.multiply_53/Mul/y", "StatefulPartitionedCall/sequential_1/MobilenetV3small/Conv_1/BatchNorm/FusedBatchNormV3"], "attr": {"T": {"type": "DT_FLOAT"}, "_grappler_ArithmeticOptimizer_MinimizeBroadcasts": {"b": true}}}, {"name": "StatefulPartitionedCall/sequential_1/MobilenetV3small/tf.__operators__.add_53/AddV2", "op": "AddV2", "input": ["StatefulPartitionedCall/sequential_1/MobilenetV3small/Conv_1/BatchNorm/FusedBatchNormV3", "StatefulPartitionedCall/sequential_1/MobilenetV3small/tf.__operators__.add_53/y"], "attr": {"T": {"type": "DT_FLOAT"}}}, {"name": "StatefulPartitionedCall/sequential_1/MobilenetV3small/re_lu_63/Relu6", "op": "Relu6", "input": ["StatefulPartitionedCall/sequential_1/MobilenetV3small/tf.__operators__.add_53/AddV2"], "attr": {"T": {"type": "DT_FLOAT"}}}, {"name": "StatefulPartitionedCall/sequential_1/MobilenetV3small/multiply_35/mul", "op": "Mul", "input": ["StatefulPartitionedCall/sequential_1/MobilenetV3small/tf.math.multiply_53/Mul", "StatefulPartitionedCall/sequential_1/MobilenetV3small/re_lu_63/Relu6"], "attr": {"T": {"type": "DT_FLOAT"}, "_grappler_ArithmeticOptimizer_MinimizeBroadcasts": {"b": true}}}, {"name": "StatefulPartitionedCall/sequential_1/global_average_pooling2d_1/Mean", "op": "Mean", "input": ["StatefulPartitionedCall/sequential_1/MobilenetV3small/multiply_35/mul", "StatefulPartitionedCall/sequential_1/global_average_pooling2d_1/Mean/reduction_indices"], "attr": {"Tidx": {"type": "DT_INT32"}, "keep_dims": {"b": false}, "T": {"type": "DT_FLOAT"}}}, {"name": "StatefulPartitionedCall/sequential_1/batch_normalization/batchnorm/mul_1", "op": "Mul", "input": ["StatefulPartitionedCall/sequential_1/global_average_pooling2d_1/Mean", "StatefulPartitionedCall/sequential_1/batch_normalization/batchnorm/mul"], "attr": {"T": {"type": "DT_FLOAT"}}}, {"name": "StatefulPartitionedCall/sequential_1/batch_normalization/batchnorm/add_1", "op": "AddV2", "input": ["StatefulPartitionedCall/sequential_1/batch_normalization/batchnorm/mul_1", "StatefulPartitionedCall/sequential_1/batch_normalization/batchnorm/sub"], "attr": {"T": {"type": "DT_FLOAT"}}}, {"name": "StatefulPartitionedCall/sequential_1/dense_1/BiasAdd", "op": "_FusedMatMul", "input": ["StatefulPartitionedCall/sequential_1/batch_normalization/batchnorm/add_1", "StatefulPartitionedCall/sequential_1/dense_1/MatMul/ReadVariableOp", "StatefulPartitionedCall/sequential_1/dense_1/BiasAdd/ReadVariableOp"], "device": "/device:CPU:0", "attr": {"epsilon": {"f": 0.0}, "transpose_b": {"b": false}, "num_args": {"i": "1"}, "transpose_a": {"b": false}, "fused_ops": {"list": {"s": ["Qmlhc0FkZA=="]}}, "T": {"type": "DT_FLOAT"}}}, {"name": "StatefulPartitionedCall/sequential_1/dense_1/Softmax", "op": "Softmax", "input": ["StatefulPartitionedCall/sequential_1/dense_1/BiasAdd"], "attr": {"T": {"type": "DT_FLOAT"}}}, {"name": "Identity", "op": "Identity", "input": ["StatefulPartitionedCall/sequential_1/dense_1/Softmax"], "attr": {"T": {"type": "DT_FLOAT"}}}], "library": {}, "versions": {"producer": 987}}, "weightsManifest": [{"paths": ["group1-shard1of3.bin", "group1-shard2of3.bin", "group1-shard3of3.bin"], "weights": [{"name": "StatefulPartitionedCall/sequential_1/MobilenetV3small/tf.math.multiply_53/Mul/y", "shape": [], "dtype": "float32"}, {"name": "StatefulPartitionedCall/sequential_1/MobilenetV3small/tf.math.multiply_52/Mul/y", "shape": [], "dtype": "float32"}, {"name": "StatefulPartitionedCall/sequential_1/MobilenetV3small/expanded_conv_10/squeeze_excite/AvgPool/Mean/reduction_indices", "shape": [2], "dtype": "int32"}, {"name": "StatefulPartitionedCall/sequential_1/MobilenetV3small/expanded_conv_10/squeeze_excite/Conv/Conv2D/ReadVariableOp", "shape": [1, 1, 576, 144], "dtype": "float32"}, {"name": "StatefulPartitionedCall/sequential_1/MobilenetV3small/expanded_conv_10/squeeze_excite/Conv/BiasAdd/ReadVariableOp", "shape": [144], "dtype": "float32"}, {"name": "StatefulPartitionedCall/sequential_1/MobilenetV3small/expanded_conv_10/squeeze_excite/Conv_1/Conv2D/ReadVariableOp", "shape": [1, 1, 144, 576], "dtype": "float32"}, {"name": "StatefulPartitionedCall/sequential_1/MobilenetV3small/expanded_conv_10/squeeze_excite/Conv_1/BiasAdd/ReadVariableOp", "shape": [576], "dtype": "float32"}, {"name": "StatefulPartitionedCall/sequential_1/MobilenetV3small/tf.__operators__.add_52/y", "shape": [], "dtype": "float32"}, {"name": "StatefulPartitionedCall/sequential_1/MobilenetV3small/tf.math.multiply_51/Mul/y", "shape": [], "dtype": "float32"}, {"name": "StatefulPartitionedCall/sequential_1/MobilenetV3small/tf.math.multiply_50/Mul/y", "shape": [], "dtype": "float32"}, {"name": "StatefulPartitionedCall/sequential_1/MobilenetV3small/tf.math.multiply_49/Mul/y", "shape": [], "dtype": "float32"}, {"name": "StatefulPartitionedCall/sequential_1/MobilenetV3small/expanded_conv_9/squeeze_excite/AvgPool/Mean/reduction_indices", "shape": [2], "dtype": "int32"}, {"name": "StatefulPartitionedCall/sequential_1/MobilenetV3small/expanded_conv_9/squeeze_excite/Conv/Conv2D/ReadVariableOp", "shape": [1, 1, 576, 144], "dtype": "float32"}, {"name": "StatefulPartitionedCall/sequential_1/MobilenetV3small/expanded_conv_9/squeeze_excite/Conv/BiasAdd/ReadVariableOp", "shape": [144], "dtype": "float32"}, {"name": "StatefulPartitionedCall/sequential_1/MobilenetV3small/expanded_conv_9/squeeze_excite/Conv_1/Conv2D/ReadVariableOp", "shape": [1, 1, 144, 576], "dtype": "float32"}, {"name": "StatefulPartitionedCall/sequential_1/MobilenetV3small/expanded_conv_9/squeeze_excite/Conv_1/BiasAdd/ReadVariableOp", "shape": [576], "dtype": "float32"}, {"name": "StatefulPartitionedCall/sequential_1/MobilenetV3small/tf.__operators__.add_49/y", "shape": [], "dtype": "float32"}, {"name": "StatefulPartitionedCall/sequential_1/MobilenetV3small/tf.math.multiply_48/Mul/y", "shape": [], "dtype": "float32"}, {"name": "StatefulPartitionedCall/sequential_1/MobilenetV3small/tf.math.multiply_47/Mul/y", "shape": [], "dtype": "float32"}, {"name": "StatefulPartitionedCall/sequential_1/MobilenetV3small/tf.math.multiply_46/Mul/y", "shape": [], "dtype": "float32"}, {"name": "StatefulPartitionedCall/sequential_1/MobilenetV3small/expanded_conv_8/squeeze_excite/AvgPool/Mean/reduction_indices", "shape": [2], "dtype": "int32"}, {"name": "StatefulPartitionedCall/sequential_1/MobilenetV3small/expanded_conv_8/squeeze_excite/Conv/Conv2D/ReadVariableOp", "shape": [1, 1, 288, 72], "dtype": "float32"}, {"name": "StatefulPartitionedCall/sequential_1/MobilenetV3small/expanded_conv_8/squeeze_excite/Conv/BiasAdd/ReadVariableOp", "shape": [72], "dtype": "float32"}, {"name": "StatefulPartitionedCall/sequential_1/MobilenetV3small/expanded_conv_8/squeeze_excite/Conv_1/Conv2D/ReadVariableOp", "shape": [1, 1, 72, 288], "dtype": "float32"}, {"name": "StatefulPartitionedCall/sequential_1/MobilenetV3small/expanded_conv_8/squeeze_excite/Conv_1/BiasAdd/ReadVariableOp", "shape": [288], "dtype": "float32"}, {"name": "StatefulPartitionedCall/sequential_1/MobilenetV3small/tf.__operators__.add_46/y", "shape": [], "dtype": "float32"}, {"name": "StatefulPartitionedCall/sequential_1/MobilenetV3small/tf.math.multiply_45/Mul/y", "shape": [], "dtype": "float32"}, {"name": "StatefulPartitionedCall/sequential_1/MobilenetV3small/tf.math.multiply_44/Mul/y", "shape": [], "dtype": "float32"}, {"name": "StatefulPartitionedCall/sequential_1/MobilenetV3small/tf.math.multiply_43/Mul/y", "shape": [], "dtype": "float32"}, {"name": "StatefulPartitionedCall/sequential_1/MobilenetV3small/expanded_conv_7/squeeze_excite/AvgPool/Mean/reduction_indices", "shape": [2], "dtype": "int32"}, {"name": "StatefulPartitionedCall/sequential_1/MobilenetV3small/expanded_conv_7/squeeze_excite/Conv/Conv2D/ReadVariableOp", "shape": [1, 1, 144, 40], "dtype": "float32"}, {"name": "StatefulPartitionedCall/sequential_1/MobilenetV3small/expanded_conv_7/squeeze_excite/Conv/BiasAdd/ReadVariableOp", "shape": [40], "dtype": "float32"}, {"name": "StatefulPartitionedCall/sequential_1/MobilenetV3small/expanded_conv_7/squeeze_excite/Conv_1/Conv2D/ReadVariableOp", "shape": [1, 1, 40, 144], "dtype": "float32"}, {"name": "StatefulPartitionedCall/sequential_1/MobilenetV3small/expanded_conv_7/squeeze_excite/Conv_1/BiasAdd/ReadVariableOp", "shape": [144], "dtype": "float32"}, {"name": "StatefulPartitionedCall/sequential_1/MobilenetV3small/tf.__operators__.add_43/y", "shape": [], "dtype": "float32"}, {"name": "StatefulPartitionedCall/sequential_1/MobilenetV3small/tf.math.multiply_42/Mul/y", "shape": [], "dtype": "float32"}, {"name": "StatefulPartitionedCall/sequential_1/MobilenetV3small/tf.math.multiply_41/Mul/y", "shape": [], "dtype": "float32"}, {"name": "StatefulPartitionedCall/sequential_1/MobilenetV3small/tf.math.multiply_40/Mul/y", "shape": [], "dtype": "float32"}, {"name": "StatefulPartitionedCall/sequential_1/MobilenetV3small/expanded_conv_6/squeeze_excite/AvgPool/Mean/reduction_indices", "shape": [2], "dtype": "int32"}, {"name": "StatefulPartitionedCall/sequential_1/MobilenetV3small/expanded_conv_6/squeeze_excite/Conv/Conv2D/ReadVariableOp", "shape": [1, 1, 120, 32], "dtype": "float32"}, {"name": "StatefulPartitionedCall/sequential_1/MobilenetV3small/expanded_conv_6/squeeze_excite/Conv/BiasAdd/ReadVariableOp", "shape": [32], "dtype": "float32"}, {"name": "StatefulPartitionedCall/sequential_1/MobilenetV3small/expanded_conv_6/squeeze_excite/Conv_1/Conv2D/ReadVariableOp", "shape": [1, 1, 32, 120], "dtype": "float32"}, {"name": "StatefulPartitionedCall/sequential_1/MobilenetV3small/expanded_conv_6/squeeze_excite/Conv_1/BiasAdd/ReadVariableOp", "shape": [120], "dtype": "float32"}, {"name": "StatefulPartitionedCall/sequential_1/MobilenetV3small/tf.__operators__.add_40/y", "shape": [], "dtype": "float32"}, {"name": "StatefulPartitionedCall/sequential_1/MobilenetV3small/tf.math.multiply_39/Mul/y", "shape": [], "dtype": "float32"}, {"name": "StatefulPartitionedCall/sequential_1/MobilenetV3small/tf.math.multiply_38/Mul/y", "shape": [], "dtype": "float32"}, {"name": "StatefulPartitionedCall/sequential_1/MobilenetV3small/tf.math.multiply_37/Mul/y", "shape": [], "dtype": "float32"}, {"name": "StatefulPartitionedCall/sequential_1/MobilenetV3small/expanded_conv_5/squeeze_excite/AvgPool/Mean/reduction_indices", "shape": [2], "dtype": "int32"}, {"name": "StatefulPartitionedCall/sequential_1/MobilenetV3small/expanded_conv_5/squeeze_excite/Conv/Conv2D/ReadVariableOp", "shape": [1, 1, 240, 64], "dtype": "float32"}, {"name": "StatefulPartitionedCall/sequential_1/MobilenetV3small/expanded_conv_5/squeeze_excite/Conv/BiasAdd/ReadVariableOp", "shape": [64], "dtype": "float32"}, {"name": "StatefulPartitionedCall/sequential_1/MobilenetV3small/expanded_conv_5/squeeze_excite/Conv_1/Conv2D/ReadVariableOp", "shape": [1, 1, 64, 240], "dtype": "float32"}, {"name": "StatefulPartitionedCall/sequential_1/MobilenetV3small/expanded_conv_5/squeeze_excite/Conv_1/BiasAdd/ReadVariableOp", "shape": [240], "dtype": "float32"}, {"name": "StatefulPartitionedCall/sequential_1/MobilenetV3small/tf.__operators__.add_37/y", "shape": [], "dtype": "float32"}, {"name": "StatefulPartitionedCall/sequential_1/MobilenetV3small/tf.math.multiply_36/Mul/y", "shape": [], "dtype": "float32"}, {"name": "StatefulPartitionedCall/sequential_1/MobilenetV3small/tf.math.multiply_35/Mul/y", "shape": [], "dtype": "float32"}, {"name": "StatefulPartitionedCall/sequential_1/MobilenetV3small/tf.math.multiply_34/Mul/y", "shape": [], "dtype": "float32"}, {"name": "StatefulPartitionedCall/sequential_1/MobilenetV3small/expanded_conv_4/squeeze_excite/AvgPool/Mean/reduction_indices", "shape": [2], "dtype": "int32"}, {"name": "StatefulPartitionedCall/sequential_1/MobilenetV3small/expanded_conv_4/squeeze_excite/Conv/Conv2D/ReadVariableOp", "shape": [1, 1, 240, 64], "dtype": "float32"}, {"name": "StatefulPartitionedCall/sequential_1/MobilenetV3small/expanded_conv_4/squeeze_excite/Conv/BiasAdd/ReadVariableOp", "shape": [64], "dtype": "float32"}, {"name": "StatefulPartitionedCall/sequential_1/MobilenetV3small/expanded_conv_4/squeeze_excite/Conv_1/Conv2D/ReadVariableOp", "shape": [1, 1, 64, 240], "dtype": "float32"}, {"name": "StatefulPartitionedCall/sequential_1/MobilenetV3small/expanded_conv_4/squeeze_excite/Conv_1/BiasAdd/ReadVariableOp", "shape": [240], "dtype": "float32"}, {"name": "StatefulPartitionedCall/sequential_1/MobilenetV3small/tf.__operators__.add_34/y", "shape": [], "dtype": "float32"}, {"name": "StatefulPartitionedCall/sequential_1/MobilenetV3small/tf.math.multiply_33/Mul/y", "shape": [], "dtype": "float32"}, {"name": "StatefulPartitionedCall/sequential_1/MobilenetV3small/tf.math.multiply_32/Mul/y", "shape": [], "dtype": "float32"}, {"name": "StatefulPartitionedCall/sequential_1/MobilenetV3small/tf.math.multiply_31/Mul/y", "shape": [], "dtype": "float32"}, {"name": "StatefulPartitionedCall/sequential_1/MobilenetV3small/expanded_conv_3/squeeze_excite/AvgPool/Mean/reduction_indices", "shape": [2], "dtype": "int32"}, {"name": "StatefulPartitionedCall/sequential_1/MobilenetV3small/expanded_conv_3/squeeze_excite/Conv/Conv2D/ReadVariableOp", "shape": [1, 1, 96, 24], "dtype": "float32"}, {"name": "StatefulPartitionedCall/sequential_1/MobilenetV3small/expanded_conv_3/squeeze_excite/Conv/BiasAdd/ReadVariableOp", "shape": [24], "dtype": "float32"}, {"name": "StatefulPartitionedCall/sequential_1/MobilenetV3small/expanded_conv_3/squeeze_excite/Conv_1/Conv2D/ReadVariableOp", "shape": [1, 1, 24, 96], "dtype": "float32"}, {"name": "StatefulPartitionedCall/sequential_1/MobilenetV3small/expanded_conv_3/squeeze_excite/Conv_1/BiasAdd/ReadVariableOp", "shape": [96], "dtype": "float32"}, {"name": "StatefulPartitionedCall/sequential_1/MobilenetV3small/tf.__operators__.add_31/y", "shape": [], "dtype": "float32"}, {"name": "StatefulPartitionedCall/sequential_1/MobilenetV3small/tf.math.multiply_30/Mul/y", "shape": [], "dtype": "float32"}, {"name": "StatefulPartitionedCall/sequential_1/MobilenetV3small/tf.math.multiply_29/Mul/y", "shape": [], "dtype": "float32"}, {"name": "StatefulPartitionedCall/sequential_1/MobilenetV3small/tf.math.multiply_28/Mul/y", "shape": [], "dtype": "float32"}, {"name": "StatefulPartitionedCall/sequential_1/MobilenetV3small/expanded_conv/squeeze_excite/AvgPool/Mean/reduction_indices", "shape": [2], "dtype": "int32"}, {"name": "StatefulPartitionedCall/sequential_1/MobilenetV3small/expanded_conv/squeeze_excite/Conv/Conv2D/ReadVariableOp", "shape": [1, 1, 16, 8], "dtype": "float32"}, {"name": "StatefulPartitionedCall/sequential_1/MobilenetV3small/expanded_conv/squeeze_excite/Conv/BiasAdd/ReadVariableOp", "shape": [8], "dtype": "float32"}, {"name": "StatefulPartitionedCall/sequential_1/MobilenetV3small/expanded_conv/squeeze_excite/Conv_1/Conv2D/ReadVariableOp", "shape": [1, 1, 8, 16], "dtype": "float32"}, {"name": "StatefulPartitionedCall/sequential_1/MobilenetV3small/expanded_conv/squeeze_excite/Conv_1/BiasAdd/ReadVariableOp", "shape": [16], "dtype": "float32"}, {"name": "StatefulPartitionedCall/sequential_1/MobilenetV3small/tf.__operators__.add_28/y", "shape": [], "dtype": "float32"}, {"name": "StatefulPartitionedCall/sequential_1/MobilenetV3small/tf.math.multiply_27/Mul/y", "shape": [], "dtype": "float32"}, {"name": "StatefulPartitionedCall/sequential_1/gray2rgb/concatenate_2/concat/axis", "shape": [], "dtype": "int32"}, {"name": "StatefulPartitionedCall/sequential_1/augmentation/rescaling_5/Cast/x", "shape": [], "dtype": "float32"}, {"name": "StatefulPartitionedCall/sequential_1/augmentation/rescaling_5/Cast_1/x", "shape": [], "dtype": "float32"}, {"name": "StatefulPartitionedCall/sequential_1/augmentation/rescaling_6/Cast", "shape": [], "dtype": "float32"}, {"name": "StatefulPartitionedCall/sequential_1/augmentation/rescaling_6/Cast_1/x", "shape": [], "dtype": "float32"}, {"name": "StatefulPartitionedCall/sequential_1/MobilenetV3small/rescaling_4/Cast/x", "shape": [], "dtype": "float32"}, {"name": "StatefulPartitionedCall/sequential_1/MobilenetV3small/rescaling_4/Cast_1/x", "shape": [], "dtype": "float32"}, {"name": "StatefulPartitionedCall/sequential_1/MobilenetV3small/tf.__operators__.add_27/y", "shape": [], "dtype": "float32"}, {"name": "StatefulPartitionedCall/sequential_1/MobilenetV3small/expanded_conv/depthwise/pad/Pad/paddings", "shape": [4, 2], "dtype": "int32"}, {"name": "StatefulPartitionedCall/sequential_1/MobilenetV3small/expanded_conv_1/depthwise/pad/Pad/paddings", "shape": [4, 2], "dtype": "int32"}, {"name": "StatefulPartitionedCall/sequential_1/MobilenetV3small/tf.__operators__.add_29/y", "shape": [], "dtype": "float32"}, {"name": "StatefulPartitionedCall/sequential_1/MobilenetV3small/expanded_conv_3/depthwise/pad/Pad/paddings", "shape": [4, 2], "dtype": "int32"}, {"name": "StatefulPartitionedCall/sequential_1/MobilenetV3small/tf.__operators__.add_30/y", "shape": [], "dtype": "float32"}, {"name": "StatefulPartitionedCall/sequential_1/MobilenetV3small/tf.__operators__.add_32/y", "shape": [], "dtype": "float32"}, {"name": "StatefulPartitionedCall/sequential_1/MobilenetV3small/tf.__operators__.add_33/y", "shape": [], "dtype": "float32"}, {"name": "StatefulPartitionedCall/sequential_1/MobilenetV3small/tf.__operators__.add_35/y", "shape": [], "dtype": "float32"}, {"name": "StatefulPartitionedCall/sequential_1/MobilenetV3small/tf.__operators__.add_36/y", "shape": [], "dtype": "float32"}, {"name": "StatefulPartitionedCall/sequential_1/MobilenetV3small/tf.__operators__.add_38/y", "shape": [], "dtype": "float32"}, {"name": "StatefulPartitionedCall/sequential_1/MobilenetV3small/tf.__operators__.add_39/y", "shape": [], "dtype": "float32"}, {"name": "StatefulPartitionedCall/sequential_1/MobilenetV3small/tf.__operators__.add_41/y", "shape": [], "dtype": "float32"}, {"name": "StatefulPartitionedCall/sequential_1/MobilenetV3small/tf.__operators__.add_42/y", "shape": [], "dtype": "float32"}, {"name": "StatefulPartitionedCall/sequential_1/MobilenetV3small/tf.__operators__.add_44/y", "shape": [], "dtype": "float32"}, {"name": "StatefulPartitionedCall/sequential_1/MobilenetV3small/expanded_conv_8/depthwise/pad/Pad/paddings", "shape": [4, 2], "dtype": "int32"}, {"name": "StatefulPartitionedCall/sequential_1/MobilenetV3small/tf.__operators__.add_45/y", "shape": [], "dtype": "float32"}, {"name": "StatefulPartitionedCall/sequential_1/MobilenetV3small/tf.__operators__.add_47/y", "shape": [], "dtype": "float32"}, {"name": "StatefulPartitionedCall/sequential_1/MobilenetV3small/tf.__operators__.add_48/y", "shape": [], "dtype": "float32"}, {"name": "StatefulPartitionedCall/sequential_1/MobilenetV3small/tf.__operators__.add_50/y", "shape": [], "dtype": "float32"}, {"name": "StatefulPartitionedCall/sequential_1/MobilenetV3small/tf.__operators__.add_51/y", "shape": [], "dtype": "float32"}, {"name": "StatefulPartitionedCall/sequential_1/MobilenetV3small/tf.__operators__.add_53/y", "shape": [], "dtype": "float32"}, {"name": "StatefulPartitionedCall/sequential_1/global_average_pooling2d_1/Mean/reduction_indices", "shape": [2], "dtype": "int32"}, {"name": "StatefulPartitionedCall/sequential_1/batch_normalization/batchnorm/mul", "shape": [576], "dtype": "float32"}, {"name": "StatefulPartitionedCall/sequential_1/batch_normalization/batchnorm/sub", "shape": [576], "dtype": "float32"}, {"name": "StatefulPartitionedCall/sequential_1/dense_1/MatMul/ReadVariableOp", "shape": [576, 3036], "dtype": "float32"}, {"name": "StatefulPartitionedCall/sequential_1/dense_1/BiasAdd/ReadVariableOp", "shape": [3036], "dtype": "float32"}, {"name": "StatefulPartitionedCall/sequential_1/MobilenetV3small/Conv/Conv2D_weights", "shape": [3, 3, 3, 16], "dtype": "float32"}, {"name": "StatefulPartitionedCall/sequential_1/MobilenetV3small/Conv/Conv2D_bn_offset", "shape": [16], "dtype": "float32"}, {"name": "StatefulPartitionedCall/sequential_1/MobilenetV3small/expanded_conv/depthwise/depthwise_weights", "shape": [3, 3, 16, 1], "dtype": "float32"}, {"name": "StatefulPartitionedCall/sequential_1/MobilenetV3small/expanded_conv/depthwise/depthwise_bn_offset", "shape": [16], "dtype": "float32"}, {"name": "StatefulPartitionedCall/sequential_1/MobilenetV3small/expanded_conv_9/project/Conv2D_weights", "shape": [1, 1, 576, 96], "dtype": "float32"}, {"name": "StatefulPartitionedCall/sequential_1/MobilenetV3small/expanded_conv/project/Conv2D_weights", "shape": [1, 1, 16, 16], "dtype": "float32"}, {"name": "StatefulPartitionedCall/sequential_1/MobilenetV3small/expanded_conv_9/project/Conv2D_bn_offset", "shape": [96], "dtype": "float32"}, {"name": "StatefulPartitionedCall/sequential_1/MobilenetV3small/expanded_conv/project/Conv2D_bn_offset", "shape": [16], "dtype": "float32"}, {"name": "StatefulPartitionedCall/sequential_1/MobilenetV3small/expanded_conv_1/expand/Conv2D_weights", "shape": [1, 1, 16, 72], "dtype": "float32"}, {"name": "StatefulPartitionedCall/sequential_1/MobilenetV3small/expanded_conv_1/expand/Conv2D_bn_offset", "shape": [72], "dtype": "float32"}, {"name": "StatefulPartitionedCall/sequential_1/MobilenetV3small/expanded_conv_1/depthwise/depthwise_weights", "shape": [3, 3, 72, 1], "dtype": "float32"}, {"name": "StatefulPartitionedCall/sequential_1/MobilenetV3small/expanded_conv_1/depthwise/depthwise_bn_offset", "shape": [72], "dtype": "float32"}, {"name": "StatefulPartitionedCall/sequential_1/MobilenetV3small/expanded_conv_1/project/Conv2D_weights", "shape": [1, 1, 72, 24], "dtype": "float32"}, {"name": "StatefulPartitionedCall/sequential_1/MobilenetV3small/expanded_conv_10/expand/Conv2D_weights", "shape": [1, 1, 96, 576], "dtype": "float32"}, {"name": "StatefulPartitionedCall/sequential_1/MobilenetV3small/expanded_conv_1/project/Conv2D_bn_offset", "shape": [24], "dtype": "float32"}, {"name": "StatefulPartitionedCall/sequential_1/MobilenetV3small/expanded_conv_2/expand/Conv2D_weights", "shape": [1, 1, 24, 88], "dtype": "float32"}, {"name": "StatefulPartitionedCall/sequential_1/MobilenetV3small/expanded_conv_2/expand/Conv2D_bn_offset", "shape": [88], "dtype": "float32"}, {"name": "StatefulPartitionedCall/sequential_1/MobilenetV3small/expanded_conv_10/expand/Conv2D_bn_offset", "shape": [576], "dtype": "float32"}, {"name": "StatefulPartitionedCall/sequential_1/MobilenetV3small/expanded_conv_2/depthwise/depthwise_weights", "shape": [3, 3, 88, 1], "dtype": "float32"}, {"name": "StatefulPartitionedCall/sequential_1/MobilenetV3small/expanded_conv_2/depthwise/depthwise_bn_offset", "shape": [88], "dtype": "float32"}, {"name": "StatefulPartitionedCall/sequential_1/MobilenetV3small/expanded_conv_2/project/Conv2D_weights", "shape": [1, 1, 88, 24], "dtype": "float32"}, {"name": "StatefulPartitionedCall/sequential_1/MobilenetV3small/expanded_conv_2/project/Conv2D_bn_offset", "shape": [24], "dtype": "float32"}, {"name": "StatefulPartitionedCall/sequential_1/MobilenetV3small/expanded_conv_3/expand/Conv2D_weights", "shape": [1, 1, 24, 96], "dtype": "float32"}, {"name": "StatefulPartitionedCall/sequential_1/MobilenetV3small/expanded_conv_3/expand/Conv2D_bn_offset", "shape": [96], "dtype": "float32"}, {"name": "StatefulPartitionedCall/sequential_1/MobilenetV3small/expanded_conv_3/depthwise/depthwise_weights", "shape": [5, 5, 96, 1], "dtype": "float32"}, {"name": "StatefulPartitionedCall/sequential_1/MobilenetV3small/expanded_conv_3/depthwise/depthwise_bn_offset", "shape": [96], "dtype": "float32"}, {"name": "StatefulPartitionedCall/sequential_1/MobilenetV3small/expanded_conv_3/project/Conv2D_weights", "shape": [1, 1, 96, 40], "dtype": "float32"}, {"name": "StatefulPartitionedCall/sequential_1/MobilenetV3small/expanded_conv_10/depthwise/depthwise_weights", "shape": [5, 5, 576, 1], "dtype": "float32"}, {"name": "StatefulPartitionedCall/sequential_1/MobilenetV3small/expanded_conv_3/project/Conv2D_bn_offset", "shape": [40], "dtype": "float32"}, {"name": "StatefulPartitionedCall/sequential_1/MobilenetV3small/expanded_conv_4/expand/Conv2D_weights", "shape": [1, 1, 40, 240], "dtype": "float32"}, {"name": "StatefulPartitionedCall/sequential_1/MobilenetV3small/expanded_conv_4/expand/Conv2D_bn_offset", "shape": [240], "dtype": "float32"}, {"name": "StatefulPartitionedCall/sequential_1/MobilenetV3small/expanded_conv_4/depthwise/depthwise_weights", "shape": [5, 5, 240, 1], "dtype": "float32"}, {"name": "StatefulPartitionedCall/sequential_1/MobilenetV3small/expanded_conv_4/depthwise/depthwise_bn_offset", "shape": [240], "dtype": "float32"}, {"name": "StatefulPartitionedCall/sequential_1/MobilenetV3small/expanded_conv_10/depthwise/depthwise_bn_offset", "shape": [576], "dtype": "float32"}, {"name": "StatefulPartitionedCall/sequential_1/MobilenetV3small/expanded_conv_4/project/Conv2D_weights", "shape": [1, 1, 240, 40], "dtype": "float32"}, {"name": "StatefulPartitionedCall/sequential_1/MobilenetV3small/expanded_conv_4/project/Conv2D_bn_offset", "shape": [40], "dtype": "float32"}, {"name": "StatefulPartitionedCall/sequential_1/MobilenetV3small/expanded_conv_5/expand/Conv2D_weights", "shape": [1, 1, 40, 240], "dtype": "float32"}, {"name": "StatefulPartitionedCall/sequential_1/MobilenetV3small/expanded_conv_5/expand/Conv2D_bn_offset", "shape": [240], "dtype": "float32"}, {"name": "StatefulPartitionedCall/sequential_1/MobilenetV3small/expanded_conv_5/depthwise/depthwise_weights", "shape": [5, 5, 240, 1], "dtype": "float32"}, {"name": "StatefulPartitionedCall/sequential_1/MobilenetV3small/expanded_conv_5/depthwise/depthwise_bn_offset", "shape": [240], "dtype": "float32"}, {"name": "StatefulPartitionedCall/sequential_1/MobilenetV3small/expanded_conv_5/project/Conv2D_weights", "shape": [1, 1, 240, 40], "dtype": "float32"}, {"name": "StatefulPartitionedCall/sequential_1/MobilenetV3small/expanded_conv_5/project/Conv2D_bn_offset", "shape": [40], "dtype": "float32"}, {"name": "StatefulPartitionedCall/sequential_1/MobilenetV3small/expanded_conv_6/expand/Conv2D_weights", "shape": [1, 1, 40, 120], "dtype": "float32"}, {"name": "StatefulPartitionedCall/sequential_1/MobilenetV3small/expanded_conv_6/expand/Conv2D_bn_offset", "shape": [120], "dtype": "float32"}, {"name": "StatefulPartitionedCall/sequential_1/MobilenetV3small/expanded_conv_6/depthwise/depthwise_weights", "shape": [5, 5, 120, 1], "dtype": "float32"}, {"name": "StatefulPartitionedCall/sequential_1/MobilenetV3small/expanded_conv_6/depthwise/depthwise_bn_offset", "shape": [120], "dtype": "float32"}, {"name": "StatefulPartitionedCall/sequential_1/MobilenetV3small/expanded_conv_6/project/Conv2D_weights", "shape": [1, 1, 120, 48], "dtype": "float32"}, {"name": "StatefulPartitionedCall/sequential_1/MobilenetV3small/expanded_conv_6/project/Conv2D_bn_offset", "shape": [48], "dtype": "float32"}, {"name": "StatefulPartitionedCall/sequential_1/MobilenetV3small/expanded_conv_7/expand/Conv2D_weights", "shape": [1, 1, 48, 144], "dtype": "float32"}, {"name": "StatefulPartitionedCall/sequential_1/MobilenetV3small/expanded_conv_7/expand/Conv2D_bn_offset", "shape": [144], "dtype": "float32"}, {"name": "StatefulPartitionedCall/sequential_1/MobilenetV3small/expanded_conv_7/depthwise/depthwise_weights", "shape": [5, 5, 144, 1], "dtype": "float32"}, {"name": "StatefulPartitionedCall/sequential_1/MobilenetV3small/expanded_conv_7/depthwise/depthwise_bn_offset", "shape": [144], "dtype": "float32"}, {"name": "StatefulPartitionedCall/sequential_1/MobilenetV3small/expanded_conv_10/project/Conv2D_weights", "shape": [1, 1, 576, 96], "dtype": "float32"}, {"name": "StatefulPartitionedCall/sequential_1/MobilenetV3small/expanded_conv_7/project/Conv2D_weights", "shape": [1, 1, 144, 48], "dtype": "float32"}, {"name": "StatefulPartitionedCall/sequential_1/MobilenetV3small/expanded_conv_10/project/Conv2D_bn_offset", "shape": [96], "dtype": "float32"}, {"name": "StatefulPartitionedCall/sequential_1/MobilenetV3small/expanded_conv_7/project/Conv2D_bn_offset", "shape": [48], "dtype": "float32"}, {"name": "StatefulPartitionedCall/sequential_1/MobilenetV3small/expanded_conv_8/expand/Conv2D_weights", "shape": [1, 1, 48, 288], "dtype": "float32"}, {"name": "StatefulPartitionedCall/sequential_1/MobilenetV3small/expanded_conv_8/expand/Conv2D_bn_offset", "shape": [288], "dtype": "float32"}, {"name": "StatefulPartitionedCall/sequential_1/MobilenetV3small/expanded_conv_8/depthwise/depthwise_weights", "shape": [5, 5, 288, 1], "dtype": "float32"}, {"name": "StatefulPartitionedCall/sequential_1/MobilenetV3small/expanded_conv_8/depthwise/depthwise_bn_offset", "shape": [288], "dtype": "float32"}, {"name": "StatefulPartitionedCall/sequential_1/MobilenetV3small/Conv_1/Conv2D_weights", "shape": [1, 1, 96, 576], "dtype": "float32"}, {"name": "StatefulPartitionedCall/sequential_1/MobilenetV3small/expanded_conv_8/project/Conv2D_weights", "shape": [1, 1, 288, 96], "dtype": "float32"}, {"name": "StatefulPartitionedCall/sequential_1/MobilenetV3small/Conv_1/Conv2D_bn_offset", "shape": [576], "dtype": "float32"}, {"name": "StatefulPartitionedCall/sequential_1/MobilenetV3small/expanded_conv_8/project/Conv2D_bn_offset", "shape": [96], "dtype": "float32"}, {"name": "StatefulPartitionedCall/sequential_1/MobilenetV3small/expanded_conv_9/expand/Conv2D_weights", "shape": [1, 1, 96, 576], "dtype": "float32"}, {"name": "StatefulPartitionedCall/sequential_1/MobilenetV3small/expanded_conv_9/expand/Conv2D_bn_offset", "shape": [576], "dtype": "float32"}, {"name": "StatefulPartitionedCall/sequential_1/MobilenetV3small/expanded_conv_9/depthwise/depthwise_weights", "shape": [5, 5, 576, 1], "dtype": "float32"}, {"name": "StatefulPartitionedCall/sequential_1/MobilenetV3small/expanded_conv_9/depthwise/depthwise_bn_offset", "shape": [576], "dtype": "float32"}]}]}